converted.onnx (onnx, 439223 bytes, 6 tensors)

hybridsequential0_dense0_weight f4 [128, 784]
0	0x3d3cf3a8	0.046130806
1	0x3d0e4be4	0.034740344
2	0x3c059f08	0.008155592
3	0x3c16f858	0.009214483
4	0x3c9691a4	0.018379994
5	0x3d8e88cb	0.06959685
6	0x3d0a7c20	0.03380978
7	0x3bc1dfe0	0.0059165806
8	0xbd66d55e	-0.056355827
9	0xbc94b3c4	-0.018152125
10	0xbd7c07a5	-0.061530728
11	0xbcfedd62	-0.031111423
12	0x3d0ddc78	0.034634084
13	0xbc8deb44	-0.017324097
14	0xbba71500	-0.005098939
15	0xbd1068b8	-0.035256118
16	0xbd0c55dc	-0.03426157
17	0xbd5b628e	-0.053560786
18	0x3b4deac0	0.003142044
19	0x3d4229d0	0.047403157
20	0x3d08a566	0.03336086
21	0xbd87e07e	-0.06634615
22	0xbc3b7ddc	-0.011443581
23	0xbd0fe17c	-0.035127148
24	0xbce159c4	-0.027508624
25	0x3bd97f50	0.0066374913
26	0xbca98d8e	-0.020697381
27	0x3cae4018	0.021270797
28	0x3d1934ae	0.037403755
29	0xbd3212d8	-0.043475002
30	0xbd2063a2	-0.039157517
31	0x3d8a9631	0.06766928
32	0xbd8cf5f3	-0.068828486
33	0x3c9a3d5e	0.01882809
34	0xbca6e174	-0.020371176
35	0x3d45b5a3	0.048268925
36	0xbd8013b9	-0.06253762
37	0xbd860b9d	-0.06545184
38	0xbc1a7ddf	-0.009429424
39	0xbce11962	-0.027477924
40	0x3c81b1e9	0.015831904
41	0x3d555b6b	0.052089136
42	0xbd0311b9	-0.031999324
43	0x3d858717	0.06519907
44	0x3cdecb22	0.02719647
45	0x3d1caccd	0.038250733
46	0x3cde3974	0.027127005
47	0xbd2db6f6	-0.042410813
48	0x3c6a45f0	0.014298901
49	0x3d74cb0a	0.059763946
50	0x3d513096	0.051071726
51	0x3d159530	0.03651923
52	0xbc7f3bb4	-0.015578199
53	0x3d6272aa	0.055285133
54	0x3c844858	0.016147777
55	0x3d0da47e	0.0345807
56	0xbd686bc2	-0.05674339
57	0x3c80cef0	0.015723675
58	0x3d7d14f6	0.061787568
59	0xbb56c640	-0.0032771975
60	0xbc636a04	-0.013880257
61	0xbc8f8588	-0.017519727
62	0x3d842c9e	0.064538226
63	0x3d882469	0.0664757
64	0xba023114	-0.00049664197
65	0xbd8a6c68	-0.06758958
66	0x3d65f9cc	0.056146428
67	0x3d501c45	0.05080821
68	0x3ba86f1f	0.0051402
69	0x3d18342a	0.037159123
70	0x3d0ddee9	0.03463641
71	0x3d59d68e	0.05318313
72	0x3d893dbf	0.0670123
73	0xbd60948b	-0.05482916
74	0x3d8a206e	0.06744467
75	0x3d2b9720	0.04189217
76	0x3d389fbb	0.045074206
77	0xbbba0fd2	-0.0056781555
78	0x3d1ae6a5	0.037817616
79	0x3d0a3f03	0.0337515
80	0x3d7d6dbe	0.061872236
81	0xbd67a681	-0.056555275
82	0x3c02abf0	0.007975563
83	0xbc4c1e64	-0.012458418
84	0xbb4dc360	-0.003139697
85	0x3d2787fe	0.040901177
86	0x3cb53214	0.022118606
87	0xbc083a78	-0.008314721
88	0xba7fe735	-0.00097619306
89	0x3d447a6d	0.047968317
90	0x3c6cfb88	0.014464267
91	0xbd33deea	-0.04391376
92	0xbd1ee585	-0.038793106
93	0xbc4eddbe	-0.01262611
94	0x3d6caaee	0.0577802
95	0x3c9ab861	0.018886747
96	0xbd365761	-0.044516925
97	0x3d87e1a4	0.066348344
98	0xbd537615	-0.051626284
99	0xbd075020	-0.033035398
100	0x3c0e48d6	0.008684358
101	0x3cfaccbe	0.030615207
102	0x3cb84103	0.022491938
103	0x3cc26f7a	0.023734797
104	0x3d03b67b	0.03215645
105	0x3cd51b29	0.026013928
106	0x3d1d06dd	0.038336623
107	0xbcc51d19	-0.024061726
108	0x3cf172cc	0.029473685
109	0xbd3b42ea	-0.04571811
110	0x3cd68d6c	0.026190482
111	0x3cc809fc	0.024418823
112	0xbd8ac192	-0.06775202
113	0xbd453d30	-0.048154056
114	0x3d104033	0.035217475
115	0x3d3ccf09	0.04609588
116	0x3ccbd5cb	0.024882218
117	0xbd31900e	-0.043350272
118	0xbbbb1185	-0.0057088756
119	0xb9ca468e	-0.0003858101
120	0x3c65a43b	0.014016206
121	0x3d4e1f6c	0.050322935
122	0xbcb75829	-0.022380905
123	0xbd2ef7e0	-0.04271686
124	0x3ca155a5	0.019694159
125	0x3cf20105	0.029541502
126	0xbd376653	-0.04477532
127	0xbc39aaf3	-0.011332261
128	0xbbc9ff05	-0.006164434
129	0xbd6f23a4	-0.0583836
130	0xbd18ba13	-0.03728683
131	0x3d3cb819	0.046074007
132	0x3cffd06b	0.031227311
133	0xbd19d1d7	-0.037553634
134	0xbd0cbf7b	-0.034362298
135	0xbcfad6d9	-0.030620025
136	0xbd013460	-0.03154409
137	0x3d66f304	0.0563841
138	0x3d1a9a9a	0.037745096
139	0x3d1382f0	0.036013544
140	0xbb10f960	-0.0022121295
141	0xbd8c0784	-0.06837371
142	0x3cd38a1e	0.025822695
143	0x3d702911	0.058632914
144	0x3d0c7d12	0.034298964
145	0x3d8c57f2	0.06852712
146	0xbc80cf96	-0.015723985
147	0x3b330434	0.0027315738
148	0x3d8c8032	0.06860389
149	0x3a8d5c3e	0.0010784937
150	0xbd2cde4c	-0.042204186
151	0x3d18c940	0.037301302
152	0x3b72a2c4	0.0037023285
153	0x3d0905ac	0.033452675
154	0xbc02f30b	-0.007992516
155	0x3d31dd90	0.04342419
156	0xbd8af422	-0.06784846
157	0x3d06be8c	0.032896563
158	0xbcefb736	-0.029262166
159	0x3d51a07d	0.051178444
160	0xbd7222ce	-0.059115224
161	0x3b617ab5	0.0034405414
162	0x3c4719a1	0.0121521065
163	0x3d299165	0.041398425
164	0x3d31d3fc	0.043415055
165	0xbbe8724d	-0.007093704
166	0xbcb925b6	-0.02260099
167	0x3b91c2f0	0.004448287
168	0xbd5a2fde	-0.053268306
169	0x3ce8c3b8	0.028413638
170	0x3befbd60	0.0073162764
171	0xbbf2e544	-0.0074125845
172	0xbc5d3e56	-0.013503632
173	0xbd1f6f3c	-0.03892444
174	0x3caccc4a	0.021093506
175	0x3d834839	0.0641026
176	0x3cde2af4	0.027120091
177	0xbcc491f7	-0.023995383
178	0xbbb6b466	-0.0055757044
179	0xbd70cb34	-0.05878754
180	0x3c4f64bc	0.012658294
181	0x3d268473	0.040653657
182	0x3d59c350	0.05316478
183	0xbd0d3668	-0.034475714
184	0x3d5d8b18	0.05408773
185	0x3d2ec312	0.042666502
186	0x3d1a51ad	0.03767555
187	0xbd334a74	-0.043772176
188	0x3b351fb4	0.0027637305
189	0x3d763098	0.060104936
190	0xbd618e83	-0.05506755
191	0x3d4e98f1	0.050438825
192	0x3cac9aa4	0.021069832
193	0xbd2631dc	-0.040574893
194	0x3a6fbab6	0.00091449486
195	0xbd7e9a5d	-0.06215893
196	0xbc4a53b0	-0.012349054
197	0x3d87ef61	0.06637455
198	0xbcc354aa	-0.023844082
199	0x3ceb3d17	0.028715653
200	0x3d83ccae	0.06435524
201	0xbd520461	-0.051273707
202	0xbceaa542	-0.028643254
203	0x3d108044	0.035278574
204	0x3b9d0a62	0.0047924975
205	0x3ab7b58a	0.0014015895
206	0xbd95b4f9	-0.073099084
207	0xbd53812a	-0.051636852
208	0x3c8db5c1	0.017298581
209	0x3c07c2fd	0.008286235
210	0xbd0f8878	-0.035042256
211	0x3d871530	0.06595838
212	0xbd78f81f	-0.0607835
213	0xbbaa84f9	-0.00520384
214	0x3cbcdd68	0.023054793
215	0x3acf8f33	0.0015835523
216	0x3d1d03d9	0.038333748
217	0x3d1771de	0.036973827
218	0xbcccc1df	-0.024994789
219	0xbd7da035	-0.061920363
220	0x3d4aff1d	0.0495597
221	0x3cbc9826	0.023021769
222	0x3d83c712	0.06434454
223	0xbca11404	-0.019662865
224	0x3c0870b0	0.008327648
225	0x3d266b58	0.040629715
226	0x3d2d98e3	0.042382132
227	0x3d8c146d	0.068398334
228	0xbca36c98	-0.019949242
229	0xbcc4c1d0	-0.024018198
230	0x3c44a479	0.012002104
231	0xbc91c06d	-0.017791951
232	0xbcce6e7f	-0.025199173
233	0x3c845658	0.016154453
234	0xbd1fc4d4	-0.03900607
235	0xbada90e2	-0.0016675259
236	0xbc440fe2	-0.011966677
237	0xbd92f94a	-0.07176454
238	0x3d5fdf38	0.054656237
239	0x3d71a624	0.058996335
240	0x3d7dd029	0.061966095
241	0x3b4b6abf	0.0031038967
242	0xbd014a40	-0.03156495
243	0xbd97989a	-0.07402153
244	0x3cb6ea14	0.022328414
245	0xbd63df4b	-0.05563287
246	0xbd494696	-0.04913958
247	0xbd492d7c	-0.049115643
248	0xbd5e9a9c	-0.054346666
249	0x3c4f287e	0.012643931
250	0xbd44c899	-0.048042867
251	0xbd0e60ec	-0.0347604
252	0x3d3a94d6	0.045552097
253	0xbae38980	-0.0017359704
254	0x3d438067	0.047729876
255	0xbc9de86b	-0.019275865

hybridsequential0_dense0_bias f4 [128]
0	0xbbdad656	-0.006678383
1	0x3d0c1c4f	0.034206685
2	0xbcb6f2c1	-0.022332551
3	0xbc61f62b	-0.013791601
4	0x3becd37c	0.0072273593
5	0x3c22c069	0.0099335695
6	0xbc42af25	-0.011882578
7	0x3c0bfdc4	0.008544389
8	0x3d9d3d15	0.07677666
9	0xba470de6	-0.00075933186
10	0xbb5ce1d2	-0.0033703935
11	0x3c61a0fd	0.013771293
12	0x3b83e48f	0.004025049
13	0xbbbbc2ac	-0.005729994
14	0x3cdb020a	0.02673437
15	0x3ccecb94	0.025243558
16	0x3cb49c14	0.02204708
17	0x3d485fe2	0.048919566
18	0x3c563e23	0.013076338
19	0x3d3b28fe	0.04569339
20	0x3c2906a2	0.010316523
21	0x3c4668c8	0.012109943
22	0x3cba422f	0.022736637
23	0x3bd0c704	0.0063713808
24	0x3cb6a55e	0.02229565
25	0x3cfaf3a0	0.030633748
26	0x3c2cd0d8	0.010547839
27	0xbb137cc8	-0.0022504795
28	0x3d2c774b	0.042105954
29	0x3bd93174	0.0066282097
30	0x3d4309cb	0.04761676
31	0x3b98b9af	0.004660807
32	0x3d997b8c	0.07494268
33	0x3cf4a09d	0.029861743
34	0x3cde0e4c	0.027106427
35	0xbc42fa9c	-0.01190057
36	0x3d1709cf	0.03687459
37	0x3d1258f7	0.035729375
38	0x3ca8740b	0.020563146
39	0xbc28df52	-0.01030715
40	0x3b4f1580	0.0031598508
41	0xbccad487	-0.024759544
42	0x3cf806d6	0.030276697
43	0xbce3940b	-0.027780553
44	0x3d4d5111	0.05012614
45	0x3cab180b	0.020885488
46	0x3d45a9cd	0.048257638
47	0x3d614b17	0.055003252
48	0x3cbe808b	0.023254653
49	0x3db373e7	0.08762341
50	0x3b14c284	0.0022698948
51	0xbcff19ff	-0.031140326
52	0x3d930d75	0.07180301
53	0xbbe49051	-0.0069752117
54	0xbb68eb64	-0.0035540694
55	0xbd070416	-0.03296288
56	0x3cd24afe	0.025670525
57	0x3c2bbbf8	0.010481827
58	0xbadaf093	-0.0016703777
59	0x3b391e80	0.002824694
60	0xbc69c379	-0.014267796
61	0x3d2ca81a	0.0421525
62	0xbb8b4355	-0.00424997
63	0xbcbf7777	-0.023372395
64	0x3d097273	0.033556413
65	0xbc16673a	-0.009179885
66	0x3c34187c	0.010992166
67	0x3cad8677	0.021182282
68	0x3b8abd3d	0.0042339847
69	0x3bbc40d5	0.0057450333
70	0x3d7ad8f4	0.06124206
71	0x3d6bf027	0.057602074
72	0x3c5970bb	0.013271506
73	0x3d7f20fd	0.06228732
74	0x3ca0c294	0.019624032
75	0x3bfccab9	0.007714596
76	0x3c0254b9	0.00795477
77	0xbb381233	-0.002808702
78	0x3b8e0c5d	0.00433497
79	0x3c2dc238	0.010605387
80	0x3c9b13e0	0.018930376
81	0x3d774e7e	0.06037759
82	0x3d5a4f63	0.053298365
83	0xbcac8b31	-0.021062465
84	0x3cb27327	0.021783425
85	0x3d4b274e	0.04959803
86	0x3cac1bbb	0.021009317
87	0x3d822a5c	0.06355736
88	0x3d31f07b	0.04344223
89	0x3cddd767	0.02708025
90	0x3c8edbb1	0.017438741
91	0x3c0d3a14	0.008619804
92	0x3cd5e73d	0.02611124
93	0x3cb06aa4	0.021535225
94	0x3ccf9b3d	0.025342578
95	0x3c3cbbe2	0.011519404
96	0x3d3edb1f	0.04659569
97	0x3c545d1b	0.012961651
98	0x3cfdcf02	0.030982498
99	0x3cf6c45e	0.030122932
100	0xbcfc59d9	-0.030804561
101	0xbb9483b5	-0.0045323023
102	0x3d4bb824	0.049736157
103	0x3ca5c1e3	0.020234054
104	0xbbec3826	-0.007208842
105	0x3b1fac5a	0.0024364204
106	0x3cfaf9fa	0.030636776
107	0xbce914fd	-0.02845239
108	0xbc2c03a3	-0.010498914
109	0xbbe8c4ff	-0.007103562
110	0x3be53159	0.006994408
111	0x3c8d4074	0.017242648
112	0x3b7c336c	0.0038482798
113	0x3cd095d0	0.025462061
114	0x3b3aceb6	0.0028504557
115	0x3d401b9c	0.04690133
116	0xbcc896e3	-0.02448601
117	0x3d1b9332	0.037982173
118	0x3d155dcd	0.03646641
119	0x3d984106	0.07434277
120	0x3b5f3945	0.0034061235
121	0x3dbcbadf	0.0921533
122	0x3d24d220	0.040239453
123	0x3d247865	0.04015388
124	0x3cea7b39	0.02862321
125	0x3d52ba22	0.05144704
126	0xbccdd1d5	-0.02512447
127	0x3c7b4dec	0.015338402

hybridsequential0_dense1_weight f4 [64, 128]
0	0xbda01490	-0.07816422
1	0x3ce0b2cb	0.027429005
2	0xbd4c1b54	-0.04983075
3	0x3e47e2c6	0.19520101
4	0x3da94d60	0.08266711
5	0x3ccbeea0	0.024894059
6	0x3ce605bf	0.028078912
7	0xbd1ff2c8	-0.039049894
8	0xbe24e296	-0.1610206
9	0xbe09c8c1	-0.13455488
10	0x3e0615eb	0.13094299
11	0xbe24c3f6	-0.16090378
12	0x3e0000e0	0.12500334
13	0xbd57004f	-0.05249053
14	0x3d7c73f8	0.061634034
15	0x3dd9d3c1	0.10636092
16	0x3e099a33	0.13437729
17	0xbccdf15f	-0.025139509
18	0xbdfc4ee6	-0.12319736
19	0xbdf60733	-0.12013092
20	0x3dd4997a	0.10380836
21	0xbe079ab7	-0.13242613
22	0xbd16e541	-0.036839727
23	0xbd104e95	-0.03523119
24	0xbdfdadfe	-0.12386702
25	0xbe0f1e4d	-0.13976403
26	0xbd415148	-0.047196656
27	0x3e23fe85	0.1601506
28	0xbd1ff104	-0.03904821
29	0x3dc91205	0.0981789
30	0x3de8e5c5	0.1137195
31	0xbdd52828	-0.1040805
32	0xbdb0f7a3	-0.08640983
33	0x3e091bb7	0.13389479
34	0xbdfc7ade	-0.123281226
35	0x3d1902f4	0.037356332
36	0x3e1e9931	0.15488125
37	0x3d7700b8	0.06030342
38	0x3d8a81b2	0.06763019
39	0xbe070531	-0.13185574
40	0x3bec5392	0.007212111
41	0xbe06c034	-0.13159257
42	0xbe384ae1	-0.17997314
43	0xbc12c0f6	-0.008957138
44	0xbdf01c48	-0.11724144
45	0xbdd19f57	-0.1023547
46	0xbe5b44a2	-0.214129
47	0xbdc9a9fb	-0.09846874
48	0xbe004056	-0.12524542
49	0xbd53dbe5	-0.05172338
50	0x3df8a4e9	0.12140829
51	0x3dfa756f	0.1222943
52	0xbbc3d359	-0.0059761223
53	0x3df9b3ad	0.121924736
54	0x3e06a2ea	0.13148084
55	0x3e18dd25	0.1492811
56	0x3cb959e1	0.022625865
57	0x3dfe4e28	0.12417251
58	0x3ddb5285	0.10709099
59	0x3c878001	0.01654053
60	0xbc9037dc	-0.01760476
61	0x3dcf61b9	0.10126061
62	0xbc84a2d1	-0.016190918
63	0xbd6e4448	-0.058170587
64	0x3e016c7a	0.12639037
65	0x3d9519de	0.072803244
66	0x3b3f4294	0.002918397
67	0x3e1dd542	0.15413383
68	0x3ddc03dc	0.107429236
69	0xbaf38f8e	-0.0018582211
70	0x3e376b54	0.17912036
71	0xbddecb9c	-0.10878679
72	0x3e3f2c9c	0.18669361
73	0x3d430dc4	0.04762055
74	0x3e1e9e82	0.15490153
75	0x3dc68aeb	0.09694465
76	0x3aa0e6b5	0.0012275787
77	0x3df96dec	0.12179169
78	0x3d8b4c97	0.06801718
79	0x3cb03424	0.021509238
80	0xbc99938e	-0.018747117
81	0xbd4670f0	-0.04844755
82	0x3d57bc24	0.05266966
83	0x3dc25bd8	0.09490174
84	0x3cdff69c	0.027339272
85	0x3dfe4706	0.124158904
86	0xbe2542d5	-0.16138776
87	0x3d793d25	0.060849328
88	0xbdcda0a7	-0.10040408
89	0xbe03d808	-0.12875378
90	0xbdc56d08	-0.09639937
91	0xbdc5e697	-0.09663122
92	0x3dca1d55	0.09868876
93	0x3d08b99a	0.03338013
94	0xbe2f0d87	-0.17095004
95	0xbd54cd0a	-0.051953353
96	0x3e016ae7	0.12638436
97	0x3d1074fb	0.03526781
98	0x3c13d35e	0.009022562
99	0x3ca683ee	0.02032658
100	0x3de8daa2	0.11369826
101	0x3c807e7a	0.015685309
102	0xbd70f27d	-0.058825005
103	0xbd234bc9	-0.039867196
104	0xbe47956b	-0.19490592
105	0xbd80845f	-0.06275248
106	0x3db5c71b	0.08875867
107	0xbd8c3110	-0.068452954
108	0x3def3296	0.116795704
109	0xbcf3d1b5	-0.029763082
110	0xbe3ccfd7	-0.1843866
111	0x3cc704fa	0.024294365
112	0x3e08bd73	0.13353519
113	0x3dc6de33	0.0971035
114	0xbdd814a6	-0.105508134
115	0xbc113771	-0.008863316
116	0x3d8a1ad5	0.06743399
117	0x3da6bcf6	0.0814151
118	0xbdd9f44d	-0.106423
119	0xbd22cd2e	-0.039746456
120	0xbdeb5932	-0.11491622
121	0xbe01f081	-0.12689401
122	0x3d962a87	0.0733233
123	0xbdb90930	-0.090349555
124	0x3e02fcb5	0.12791713
125	0x3e28d19a	0.16486207
126	0xbe3b9ff4	-0.18322736
127	0x3dfa01da	0.122073844
128	0x3dd55488	0.10416514
129	0xbc410d1f	-0.0117829135
130	0x3e85afe2	0.2611075
131	0x3c236873	0.009973633
132	0x3e09656b	0.13417594
133	0x3d25fef8	0.04052636
134	0x3dd997bd	0.10624645
135	0x3dc8bec2	0.09802009
136	0xbe56f357	-0.20991264
137	0x3d0f6f4e	0.035018258
138	0x3e32a637	0.17446218
139	0x3db04d8c	0.08608541
140	0x3d8742fd	0.06604574
141	0x3d6e2d06	0.058148406
142	0x3d17a05c	0.037018165
143	0x3d8b2595	0.067942776
144	0x3e59da81	0.21274759
145	0x3d81f297	0.063450985
146	0x3d9d9436	0.076942846
147	0x3de26244	0.11053899
148	0xbd348a9f	-0.044077512
149	0x3e0fb116	0.14032397
150	0x3b5de0bc	0.0033855876
151	0x3d4d4bce	0.05012112
152	0x3dbe27ce	0.09284936
153	0xbe1eebe4	-0.15519673
154	0x3d5dfa20	0.054193616
155	0xba02f762	-0.00049959694
156	0xbd3babe2	-0.045818217
157	0xbdc69dca	-0.096980646
158	0x3dda906b	0.10672077
159	0xbdb06a33	-0.08614006
160	0x3d551fe0	0.05203235
161	0xbe23ece8	-0.16008341
162	0xbd3a0d53	-0.045422863
163	0x3e4a75d7	0.19771515
164	0xbc70684b	-0.014673303
165	0x3e0f4bd1	0.13993765
166	0x3b8fa2f9	0.0043834415
167	0xbddeb24b	-0.108738504
168	0x3b4f0df3	0.0031594008
169	0xbd830e99	-0.06399269
170	0xbe3ad659	-0.1824583
171	0xbd4dc3d9	-0.050235603
172	0x3d8d7358	0.06906766
173	0xbc9c6f44	-0.019096024
174	0xbd8b8a29	-0.06813461
175	0x3dca17ea	0.098678425
176	0x3cd40310	0.025880367
177	0x3cb9f79d	0.022701079
178	0xbdd554e8	-0.10416585
179	0x3d7ce76a	0.06174413
180	0x3e36dec9	0.17858423
181	0xbd27016c	-0.04077284
182	0x3cb6b821	0.022304596
183	0x3ddc5919	0.107591815
184	0xbe3d01ef	-0.18457769
185	0xbd4d1fef	-0.050079282
186	0xbe0bfcc4	-0.13670641
187	0x3e23b808	0.15988171
188	0xbdfd4931	-0.12367476
189	0xbd04574e	-0.032309823
190	0xbda7cbaf	-0.081931464
191	0xbd011f34	-0.0315239
192	0xbdb966fe	-0.09052847
193	0x3dd41c62	0.10356976
194	0x3e093fbd	0.1340322
195	0xbbac3b68	-0.005256105
196	0x3e4da4ea	0.20082441
197	0x3e88d445	0.2672445
198	0x3e16869c	0.14699787
199	0xbd0c7a01	-0.03429604
200	0xbe47fd2d	-0.19530173
201	0x3dadbef6	0.084836885
202	0x3d549c09	0.05190662
203	0x3d8a88c8	0.0676437
204	0xbde66f06	-0.11251645
205	0xbd20174d	-0.03908472
206	0xbe377262	-0.17914727
207	0xbe0b1785	-0.1358319
208	0xbe008ccb	-0.12553708
209	0x3dc5ff94	0.09667888
210	0x3ccb8da5	0.024847815
211	0x3d12a65d	0.035803188
212	0x3ca62896	0.020283025
213	0x3e535f61	0.20641853
214	0xbdc49c49	-0.096001215
215	0x3e6cc743	0.23122887
216	0xbe307cc8	-0.172351
217	0xbce897dc	-0.028392725
218	0xbde5e229	-0.11224777
219	0x3dae6a73	0.08516397
220	0xbe1bb774	-0.152067
221	0x3d94a3a4	0.072577745
222	0x3d2635ce	0.040578656
223	0x3e231ec0	0.15929699
224	0x3c05d8df	0.008169382
225	0xbe91b085	-0.28454986
226	0x3cdbd666	0.026835632
227	0x3e30beb8	0.17260253
228	0xba2b2ca0	-0.0006529782
229	0x3d95ed39	0.07320637
230	0xbe3b6fa4	-0.18304306
231	0xbe503894	-0.20334083
232	0x3cead61f	0.028666554
233	0x3c379cc6	0.011206811
234	0xbd4b5af1	-0.049647275
235	0x3e0c12af	0.13679002
236	0x3e4fbac5	0.2028609
237	0xbdad7b2e	-0.0847076
238	0x3dd1c15d	0.10241959
239	0xbd081d47	-0.033231046
240	0xbe448d85	-0.1919461
241	0xbdf153f5	-0.11783592
242	0xbd2cb188	-0.042161494
243	0x3e056e7b	0.13030426
244	0xbde15f87	-0.110045485
245	0x3defa694	0.11701694
246	0xbd60fbd5	-0.054927666
247	0xbd451684	-0.048117176
248	0xbced7142	-0.02898467
249	0x3d0c52ec	0.034258768
250	0xbdfd2aad	-0.123616554
251	0xbbae6409	-0.0053219837
252	0x3c9d40f7	0.019196017
253	0x3b00560d	0.001958254
254	0xbe2c5669	-0.16829838
255	0x3d80533b	0.06265875

hybridsequential0_dense1_bias f4 [64]
0	0xbbd628ee	-0.006535641
1	0x3cce691f	0.02519661
2	0x3dec8d5a	0.11550398
3	0x3d759d48	0.05996445
4	0xbcd7db9c	-0.026349835
5	0x3d955625	0.072918214
6	0x3d3f323d	0.04667877
7	0xbca79720	-0.020457804
8	0xbcbd6366	-0.023118686
9	0x3c8845b5	0.016634801
10	0x3d8c8f7f	0.06863307
11	0x3b165833	0.0022940754
12	0x3d0871f1	0.033311788
13	0x3d71f528	0.05907169
14	0x3d994c43	0.07485249
15	0x3d18a734	0.037268832
16	0x3d4a6c74	0.049419835
17	0x3c179fda	0.00925442
18	0xbbd8c818	-0.00661565
19	0x3d50149b	0.0508009
20	0x3d6a08f9	0.057137463
21	0xbcbb8643	-0.02289117
22	0x3c1c95dc	0.009557214
23	0x3b326ec5	0.0027226668
24	0x3cdf60e5	0.027267883
25	0x3d95a1fe	0.07306288
26	0x3c3e6820	0.011621505
27	0x3d960f64	0.07327154
28	0xba93facb	-0.0011289952
29	0x3c8c778c	0.017146848
30	0xbca3c2aa	-0.019990284
31	0x3c319291	0.010838167
32	0xbd179c61	-0.03701437
33	0x3cfd5e37	0.030928714
34	0x3cdc0cc2	0.026861552
35	0xbca6794b	-0.020321509
36	0x3d295e3e	0.041349642
37	0x3cf5b859	0.02999513
38	0xbc5d717a	-0.013515824
39	0x3d973297	0.07382696
40	0x3d150507	0.036381748
41	0xbd1b98ef	-0.037987646
42	0x3ca22e3f	0.019797442
43	0xbc975bd1	-0.018476399
44	0x3d7fe729	0.06247631
45	0x3d392096	0.045197092
46	0x3c34873b	0.01101857
47	0xbcbf8623	-0.023379391
48	0xbcb1344d	-0.021631384
49	0xbcb4432c	-0.022004686
50	0x3d13e8d7	0.036110725
51	0x3da97d93	0.082759045
52	0x3c9eed02	0.019400124
53	0xbd1b9570	-0.03798431
54	0xbcd1a2b9	-0.025590288
55	0x3d850a98	0.06496161
56	0xbd82a53f	-0.063791744
57	0x3ce978db	0.028500011
58	0xbc19173e	-0.00934392
59	0x3d057218	0.03257951
60	0xb8d26055	-0.000100315236
61	0x3c38dc92	0.011283057
62	0x3d476b5b	0.048686367
63	0x3d6b54f9	0.057454083

hybridsequential0_dense2_weight f4 [10, 64]
0	0x3dd70240	0.10498476
1	0xbe7a95fd	-0.24471278
2	0x3dff8a96	0.12477605
3	0xbc10d113	-0.00883891
4	0xbe687424	-0.22700554
5	0x3e1763a0	0.14784098
6	0x3ea5105b	0.3223904
7	0x3e656eca	0.22405544
8	0x3d9348de	0.07191633
9	0xbe555895	-0.20834573
10	0xbe823116	-0.25428075
11	0xbdcb6097	-0.099305324
12	0x3ea333da	0.31875497
13	0xbdf5560d	-0.119793035
14	0xbea40ae7	-0.32039568
15	0x3e377016	0.17913851
16	0xbea88f96	-0.32922047
17	0x3e93b4da	0.28848916
18	0xbda04399	-0.07825393
19	0xbeab07b3	-0.33404312
20	0xbea78693	-0.3271986
21	0x3e444bbb	0.19169514
22	0x3f199d70	0.60005856
23	0xbda6e1c4	-0.0814853
24	0xbd5113c7	-0.05104425
25	0xbe9a8d0e	-0.3018574
26	0xbd8498d8	-0.06474465
27	0x3c9a9e6a	0.018874366
28	0xbe506b67	-0.2035347
29	0x3d24f1a5	0.040269513
30	0x3ececce8	0.40390706
31	0xbd614b51	-0.055003468
32	0xbb8ac38b	-0.0042347363
33	0xbe95b915	-0.2924277
34	0x3d462ea6	0.04838433
35	0x3ca2bc37	0.019865138
36	0xbe6e55b0	-0.23274875
37	0xbeb504b6	-0.35355157
38	0xbc95941f	-0.018259106
39	0xbe3a07a0	-0.18166971
40	0x3d8b56d7	0.06803673
41	0xbd98bcfc	-0.07457921
42	0xbe1787f0	-0.1479795
43	0xbe6fa9d0	-0.23404622
44	0xbee7a34a	-0.45241767
45	0x3e8e551d	0.2779931
46	0xbebd26a2	-0.36943537
47	0xbe099a4b	-0.13437764
48	0x3e9784ea	0.29593593
49	0x3e2e2577	0.17006479
50	0x3e1fad38	0.15593421
51	0x3e7d75de	0.24751994
52	0x3dc9090b	0.09816178
53	0x3e41db16	0.18931231
54	0x3e2bcf09	0.16778196
55	0x3c5672ca	0.013088891
56	0xbd7317b9	-0.059348796
57	0x3e7b0999	0.2451538
58	0x3dd23c6d	0.102654316
59	0xbe530c7b	-0.2061023
60	0xbe3da0f5	-0.18518431
61	0xbe34e538	-0.17665565
62	0x3e8ff6c9	0.2811797
63	0x3c16f039	0.009212547
64	0x3e156143	0.14587884
65	0xbd9f292d	-0.077715255
66	0x3e11812e	0.14209434
67	0xbed7f398	-0.42178035
68	0xbe9efe07	-0.31053182
69	0x3d8faf1b	0.070158206
70	0xbe91eded	-0.28501835
71	0x3e9abeb8	0.30223632
72	0xbe3e5d39	-0.18590249
73	0xbcc09c2c	-0.023511969
74	0x3eb1360f	0.34611556
75	0x3e496987	0.19669162
76	0x3cbf6649	0.023364203
77	0x3e0047d8	0.12527406
78	0x3e094931	0.13406827
79	0x3e99ebde	0.30062765
80	0xbda9635b	-0.08270904
81	0xbe8b8852	-0.27252442
82	0xbe13b634	-0.14424974
83	0x3eb11dcc	0.34593046
84	0x3cf24626	0.029574465
85	0x3bac72c0	0.0052627027
86	0xbde1c24a	-0.11023386
87	0x3bb240a7	0.005439836
88	0x3df6d263	0.12051847
89	0x3ebb8e33	0.36631927
90	0x3e178851	0.14798094
91	0xbec5ee0a	-0.38658172
92	0x3e1c4d30	0.1526382
93	0xbec45bf7	-0.38351414
94	0xbe4dd253	-0.20099764
95	0xbd92b31f	-0.07163071
96	0xbcf6bfb7	-0.030120714
97	0x3e16dde2	0.14733079
98	0xbe482cec	-0.19548386
99	0x3e4c140b	0.19929521
100	0xbe596388	-0.21229374
101	0xbda15170	-0.07876861
102	0xbdc86783	-0.09785368
103	0xbd9c2a54	-0.07625261
104	0x3ed33377	0.41250202
105	0xbe83a0d6	-0.25708646
106	0x3e1b33ca	0.15156475
107	0x3d844679	0.06458754
108	0x3ee0db6c	0.43917406
109	0x3e731cd4	0.23741466
110	0xbe26dabd	-0.1629438
111	0xbe7041b4	-0.23462564
112	0xbe8f0817	-0.2793586
113	0xbea37d6e	-0.31931633
114	0xbdd8115a	-0.105501845
115	0xbe4f0110	-0.20215249
116	0x3ecbf354	0.39834082
117	0xbe37415c	-0.17896026
118	0xbe40c353	-0.1882451
119	0x3d8382dd	0.064214446
120	0xbe8b808c	-0.2724651
121	0x3e8a370a	0.26995116
122	0x3d50f270	0.051012456
123	0xbe43751c	-0.19087642
124	0x3b647885	0.0034861874
125	0xbd3ec9cb	-0.046579164
126	0xbd478984	-0.04871513
127	0x3ed895b7	0.42301723
128	0x3e809beb	0.25118956
129	0x3eb1e3fa	0.34744245
130	0x3d4f2130	0.05056876
131	0x3d66ab13	0.056315493
132	0x3e8614bf	0.26187703
133	0x3d803f09	0.06262023
134	0x3d2f3599	0.042775724
135	0xbe3f890f	-0.18704627
136	0x3eb91485	0.36148468
137	0xbdc63333	-0.09677734
138	0xbe6d5549	-0.23177065
139	0xbe849d42	-0.25901228
140	0x3dadc5bc	0.084849805
141	0x3eb93fc9	0.36181477
142	0xbdbbe54d	-0.09174595
143	0xbac3ec60	-0.0014947765
144	0xbef058be	-0.46942705
145	0x3e8ad761	0.27117446
146	0x3e8c16a8	0.27361035
147	0x3dc68aac	0.09694418
148	0x3e2d2c9c	0.16911548
149	0x3e0b3651	0.13594939
150	0xbdb14bfb	-0.0865707
151	0x3e0b4749	0.13601412
152	0x3e375b24	0.17905861
153	0x3d7be774	0.061500028
154	0x3d7d1d93	0.061795782
155	0x3ddfd81f	0.10929894
156	0xbeaa9253	-0.33314762
157	0xbe71f70b	-0.23629396
158	0xbdcd8eeb	-0.10037025
159	0xbaedfebf	-0.0018157585
160	0x3e29a7ef	0.16567968
161	0x3e9a52cb	0.3014129
162	0x3e128b20	0.14310884
163	0x3e0f3368	0.13984454
164	0xbe206c28	-0.15666258
165	0xbebc6840	-0.36798286
166	0x3b86ef4a	0.004117881
167	0x3d8b47a1	0.068007715
168	0xbee9e7a0	-0.45684528
169	0xbccd1035	-0.025032142
170	0x3e34b48f	0.17647003
171	0xbed0e1b4	-0.40797198
172	0x3e250be7	0.16117822
173	0x3ec8a6e8	0.3918984
174	0x3c919fa1	0.017776312
175	0xbc22dc47	-0.0099402135
176	0x3f1c4e92	0.6105739
177	0xbdefaa7f	-0.117024414
178	0x3e1faf2e	0.1559417
179	0xbea7ef7c	-0.327999
180	0xbdbf15f5	-0.0933036
181	0xbca32dee	-0.019919362
182	0x3ecd4e01	0.40098575
183	0xbdd236b9	-0.10264344
184	0xbe55a062	-0.20861962
185	0xbe56ed63	-0.20988993
186	0x3e878431	0.26468042
187	0xbc8da5a8	-0.017290905
188	0xbdc85ae0	-0.09782958
189	0x3c92eb5f	0.0179345
190	0xbf0032f4	-0.5007775
191	0x3f0903cf	0.53521436
192	0xbd9490fa	-0.072542146
193	0xbeae1e96	-0.3400771
194	0x3ec19aca	0.37813407
195	0xbd80518c	-0.06265554
196	0x3e3fc72c	0.18728322
197	0x3e3e6c85	0.18596084
198	0xbedc148f	-0.42984435
199	0x3ea5afcb	0.32360682
200	0x3e483070	0.19549727
201	0xbcc9f5a2	-0.02465326
202	0x3ea452f8	0.3209455
203	0x3d938bf1	0.07204426
204	0xbe8a96d5	-0.270682
205	0x3e237d53	0.15965776
206	0xbe0c0be7	-0.13676415
207	0xbea6410a	-0.32471496
208	0x3e63ee25	0.22258814
209	0x3e934d67	0.2876999
210	0xbe5adccf	-0.21373294
211	0xbd8d3636	-0.068951055
212	0x3e2692e0	0.16266966
213	0xbe14ea59	-0.14542522
214	0x3e311077	0.17291437
215	0x3e6ca112	0.23108318
216	0x3e89c589	0.2690852
217	0xbef6174a	-0.48064643
218	0x3d3a098e	0.04541927
219	0xbd8061db	-0.062686644
220	0xbe17bc24	-0.14817864
221	0xbdebaad4	-0.11507192
222	0x3db99ce9	0.09063131
223	0xbe3fd0c2	-0.18731979
224	0x3bf555d8	0.00748704
225	0x3eb5d8cd	0.35516968
226	0x3eb97a0f	0.36225936
227	0x3baafc4d	0.005218065
228	0xbe8cf8a3	-0.27533445
229	0xbd1a36ea	-0.037650026
230	0x3db63535	0.08896867
231	0xbcaeaa18	-0.021321341
232	0xbe1abcd4	-0.15111095
233	0x3eb4d55a	0.35319024
234	0xbd4a7504	-0.049428
235	0xbe3cc595	-0.18434747
236	0x3f06dfc9	0.5268522
237	0xbe8fe492	-0.28104073
238	0x3e237f0a	0.1596643
239	0x3e52e9fb	0.20597069
240	0x3dcedc7c	0.10100648
241	0xbc89e3a2	-0.016832177
242	0xbebd36bb	-0.3695582
243	0xbe0c7801	-0.13717653
244	0x3e965d99	0.29368284
245	0x3e669261	0.22516777
246	0xbe8cb923	-0.27484998
247	0xbd33c1a4	-0.043885842
248	0x3eacf6e9	0.33782127
249	0xbdc2a6a3	-0.0950444
250	0xbe3cc6d3	-0.1843522
251	0x3d9420cc	0.07232818
252	0x3d73e9b0	0.059549034
253	0xbdd7224b	-0.10504588
254	0xbe038c4e	-0.1284649
255	0xbe6a7b98	-0.2289871

hybridsequential0_dense2_bias f4 [10]
0	0xbda6af60	-0.08138919
1	0x3e114d29	0.1418959
2	0x3b788da6	0.0037926226
3	0xbd8241a5	-0.06360177
4	0xbc897972	-0.016781542
5	0x3e03c056	0.12866339
6	0x3c610fae	0.0137366485
7	0x3d8fbdd1	0.070186265
8	0xbe5c7203	-0.21527867
9	0x3c99d06a	0.018776137
