model.tflite (tflite, 40920 bytes, 14 tensors)

output/bias f4 [10]
00000000: 807b d4bd 956d 413e 6557 003e e373 a4bd
00000010: 98a5 78bd d67b fe3d fafc ccbd bee6 cb3d
00000020: 72f5 05be ed83 3ebd
-0.10375118 0.18889458 0.12533338 -0.08029916 -0.060704798 0.124259636 -0.10009189 0.0995612
-0.13081911 -0.046512533

arith.constant f4 [20, 20]
00000000: 11c7 653e a3f4 753e 47c5 603d 215e cc3d
00000010: a73a 64be 0775 d7be f636 943e 5790 b3be
00000020: cd56 803d 14a9 f33e bc06 03bf bfe9 b5bd
00000030: 166e ec3d 4c15 43be aaa1 7fbe 6032 433e
00000040: 011b 7a3e a87d 9ebe ea8d 79bd 6c0b 163d
00000050: 3a7b de3d 7fde d03d 732f 3f3e 66c6 cb3d
00000060: 9ddd ecbe 8ef6 073d 9eb3 5ebe c064 05be
00000070: 16a3 67be 04c9 403f 8aa8 683e fe16 a23d
00000080: 288e 483e dfe3 3abe 8a6d 103e 3ee1 0f3f
00000090: 1d89 1a3e 4757 8fbd 3379 82bc 8e00 323e
000000a0: f362 0f3d a7cf fe3e 2e19 81be d153 09bc
000000b0: aebc 81bd f1ee dabe 7602 c13e 6d44 adbe
000000c0: fc4e 9c3e 34c3 88bd c5e9 cdbe fd48 22bd
000000d0: c507 6ebe 9e30 543e 1976 4cbe cb3b 48be
000000e0: c4f6 b03e 0d1a 8bbe d1f6 f83d 00e5 b8be
000000f0: 3a2e 26be ffbc ac3e cb88 07be db1d b7bd
00000100: 5ecf 803e 9195 93be ed4b 193f eaeb e6ba
00000110: ee53 183e fa7c 89be 2c35 fbbe 3467 fcbd
00000120: 0872 0cbe 1905 323e 5e99 efbe 925b cd3d
00000130: 6c94 9dbd 2553 55be 9d99 073d bf47 d6be
00000140: 0a3a dc3d 80c4 a03e f79c 283d 2ff5 903e
00000150: 3249 4dbe a97a a6be 7f38 b43e b308 aabe
00000160: 4d38 b63e 5055 853f 4db2 2fbe c3a8 2d3e
00000170: aeb5 51bf 27ca 24be fe5b 72be 992f 94be
00000180: 7a67 e13e 6461 37be bf0c f03e 84bd d13d
00000190: ce2d 29bd 7773 5b3e 839b 4a3e ac98 bebe
000001a0: 18a8 403e d6b0 69be e034 dd3e 2de3 d1bd
000001b0: 8379 ae3d c42e a53d 6f49 77be 5050 023e
000001c0: 3e64 c03e 8988 0c3f c243 61be 6dcf 753e
000001d0: b6c5 933e b579 38be 37f5 a23e 8097 19bf
000001e0: 1e43 273e 605a a13e 1c84 e13d a5f7 74be
000001f0: 8ee8 a03e a41b 9abe 31b8 353d 3d2f 54bc
00000200: d9a0 a5be 4200 91bd 70a9 8abe f0cf eebd
00000210: eeaf 433f 0a17 a63e 7b3f fcbd fec4 3a3f
00000220: 6eda a3be 758c 89be 564c a63e fa11 ffbe
00000230: cd9d 963e 4f91 803e 9748 71be 454e 17bf
00000240: 7796 2f3f 7dc0 3bbe 3960 383e 6ee6 233d
00000250: 0f1a a9be 93e0 5ebd 422f f5be 91ae 0e3f
00000260: b712 c23e 14f5 913f f00f 0fbf 5c8e 9ebd
00000270: 2e98 5dbc f739 94be 6f55 b53e 999c 0fbf
00000280: af28 61bd bfe6 59bd 3be0 79be 8e70 37be
00000290: 284b 9dbe 0aec 78be d262 5e3d 922e babe
000002a0: 1df6 fb3e ae8b 633e dfce 8fbe 9b33 6f3e
000002b0: 6fd9 c13e 8c16 f03c 4bab 38bd 7903 0a3f
000002c0: 132a 633e cbeb d8bd 6093 babd c4f8 61be
000002d0: 903e a43d 8ff7 393f 3e56 c4be 990d 29bf
000002e0: 904b c93e 05df bbbd 2128 36be f489 b9bc
000002f0: ab60 933d ba19 403e d498 3abf b664 8f3c
00000300: aa43 b1be f499 063f 54bb d8bd 88e4 b13e
00000310: 51ef 3fbe cfce 7c3d 2bce 0abe 3590 7a3e
00000320: 04b0 483e 34de edbd 07d1 6c3e a902 4c3e
00000330: 7347 7cbe bd52 06bd f3fe 8b3d 3182 61be
00000340: 8963 2bbe 0804 e43d 41d7 27be b1c1 d83e
00000350: ecd2 ec3e 737a 32bd 2afe 9cbe ade2 e43e
00000360: 1238 863c a231 95bd fb2a a93e 7af8 9ebe
00000370: b1de 063f 56b0 7d3e e3be 9b3d d705 513e
00000380: 9bff e7bc 8775 98be df53 7f3d efd5 823b
00000390: 5fe0 e23d e1a8 5bbd 21cf d6be 6fbf bb3d
000003a0: c0ea 1abe cd9f 0c3e f2d4 b8bd 3089 293e
000003b0: 1ae3 d73e 57b8 8fbe 3772 133e 9a00 36be
000003c0: e039 fbbe cf0f 113f 55ba ce3e cf04 033e
000003d0: a294 b03e cb90 a9be e7c0 6ebd 4bf0 cc3e
000003e0: d314 213e e1d5 493e 81ce 2dbf 9d45 903e
000003f0: 205a 563d 380e 933e 9fa4 28bf e86c a93e
0.22439219 0.24019103 0.05487564 0.09978891 -0.22287999 -0.42081472 0.28948182 -0.3507106
0.06266556 0.47589934 -0.5118215 -0.08882474 0.11544435 -0.19051093 -0.24964014 0.19062185
0.24424364 -0.30955243 -0.060926355 0.036631986 0.10863347 0.10198688 0.18670444 0.09949951
-0.46262828 0.033194117 -0.21748206 -0.13026714 -0.22620806 0.75306726 0.22720543 0.07914542
0.19585478 -0.18250988 0.14104286 0.5620307 0.15091367 -0.06999069 -0.015926933 0.17383024
0.035006475 0.497678 -0.25214523 -0.0083818 -0.06334816 -0.42760423 0.3769719 -0.33841267
0.3052901 -0.06677857 -0.40217414 -0.03962039 -0.23245151 0.20721671 -0.19966926 -0.19554059
0.34563267 -0.27168313 0.121564515 -0.36112213 -0.16228572 0.33737943 -0.13235776 -0.08941241
0.2515821 -0.28825048 0.5988148 -0.0017617915 0.14875767 -0.26853162 -0.49064004 -0.12324372
-0.13715374 0.17384757 -0.46796697 0.10027231 -0.07694325 -0.20832498 0.03310548 -0.41851613
0.107532576 0.31399918 0.04116532 0.2831206 -0.20047453 -0.32515457 0.35199353 -0.33209762
0.3558983 1.041666 -0.1715786 0.16958909 -0.81917846 -0.1609274 -0.23667905 -0.28942564
0.4402426 -0.17908245 0.46884724 0.10241225 -0.04130345 0.21430765 0.19785886 -0.37225854
0.18814123 -0.22821364 0.43204403 -0.102484085 0.0851927 0.080655605 -0.24149106 0.1272595
0.3757648 0.54895836 -0.21998504 0.24004908 0.2886178 -0.18015178 0.3182771 -0.59996796
0.16334197 0.31514263 0.11011526 -0.23922594 0.31427425 -0.30099213 0.04436511 -0.012950716
-0.3234928 -0.07080127 -0.27082396 -0.11660755 0.7644032 0.32439452 -0.123167954 0.72956836
-0.32002586 -0.26864973 0.32480115 -0.49818403 0.29417267 0.25110862 -0.23562847 -0.59103805
0.68588966 -0.18335147 0.18005456 0.040014677 -0.33027694 -0.05441339 -0.47887617 0.5573512
0.37904903 1.1402917 -0.55883694 -0.07741997 -0.013525052 -0.28950474 0.35416743 -0.56098324
-0.05497044 -0.053198572 -0.24401943 -0.1791403 -0.30721402 -0.24308792 0.05429346 -0.36363655
0.49211207 0.22221252 -0.28087518 0.2335953 0.378612 0.029307626 -0.045085233 0.5391155
0.22184019 -0.10591849 -0.09110141 -0.22067553 0.08019745 0.7264337 -0.38347048 -0.66036373
0.39315462 -0.09173397 -0.17788745 -0.022648789 0.07196172 0.18759814 -0.7288945 0.017504077
-0.34621936 0.52578664 -0.10582605 0.34744668 -0.18743636 0.061720666 -0.1355521 0.24469073
0.19598395 -0.116146475 0.23126613 0.1992289 -0.2463663 -0.03279375 0.06835737 -0.2202232
-0.16737188 0.111335814 -0.16390707 0.42335275 0.4625467 -0.043573808 -0.30662662 0.4470419
0.016384158 -0.07284857 0.33040604 -0.31048948 0.5268355 0.24774298 0.07604768 0.20412384
-0.028320124 -0.29777166 0.062335845 0.003992788 0.11077952 -0.053627852 -0.41954902 0.091673724
-0.15128613 0.13732834 -0.09024991 0.16556239 0.42165452 -0.28070328 0.14399038 -0.17773667
-0.49067593 0.56664747 0.40376535 0.12794803 0.34488398 -0.3311828 -0.058289435 0.4002708
0.157306 0.19710495 -0.67893225 0.2817811 0.052332044 0.28721786 -0.6587619 0.330909

arith.constant1 f4 [20, 20]
00000000: be2d f2bd 0441 d4bd 0933 b33d d6e2 47bd
00000010: 810e 2ebe f266 363d 7422 b6bd bb2b 14bb
00000020: 7f7e 6f3d 64d3 8bbd d0c8 823e 120a 55be
00000030: 9db4 313e 12f5 333b 3ab2 c13e d715 9ebe
00000040: d81d 66bd db78 143f 7890 30be 386a c93d
00000050: c480 0a3e cac5 293d d64d 4cbe 8137 17bd
00000060: df99 603e a674 c43d ef1d babd 00ea 713d
00000070: 03e8 96be 558f a3bd d8c7 0f3d 4d58 5a3d
00000080: 83d1 c6bd c20e c13a 8c11 4bbe 449e 12bd
00000090: fc87 1dbe 6c0a 9a3c ffcf b43c cbfe 893c
000000a0: 52eb b4be d03a a6be 23c2 0c3c 84a1 1d3e
000000b0: e4a8 df3d cf11 0cbd 590b 853e 78b0 953e
000000c0: f6fe 88be ff17 74be c978 ebbc a116 353d
000000d0: 8b66 6c3e 268a c6bd 5a2d 27be cb73 87bd
000000e0: 800b dbbd 228d 333e 308a a8bc 6aef 88bc
000000f0: 3b12 823d b029 c0bd e3a3 7abd 8ea4 94bd
00000100: c937 a43e 3876 913c 7a3d 553e d2ad 583e
00000110: bb40 273e 2be5 aa3c 806a f5be 48a6 cabc
00000120: 57d7 87be d19c ffbd 9680 29be 97c8 c93c
00000130: a18b 6abd 1b36 ff3d 3fa2 c6bb 239f d0bd
00000140: 82bf b53d d8db 0e3e 740c 09be dfde 42be
00000150: efa3 5c3e 047a e3bd 8277 ef3d 2c45 fb3d
00000160: d807 e93c 048c 95be 444c 9b3d 05b7 c13d
00000170: 8061 5e3d 69c0 53bc faa9 9ebe 3248 313e
00000180: 3b6f 81bc 6167 01be 5101 48bc 0a5b 1c3c
00000190: 089b 01bf 1193 a4bd 3eb4 ddbd c857 9abc
000001a0: 7026 50be 2c7d bfbd 3f42 6bbe 5dd4 2c3e
000001b0: 1330 bdbe c4e5 8d3d 8537 b9bd 3c97 b33d
000001c0: 29cc 933e f14d 423d cc2a 423e 0fbe 043e
000001d0: 0297 12be 48ca 13be cbd3 2bbe dc8b b43c
000001e0: 762e 7bbd 882e 243e 03f3 a8bc fe97 393e
000001f0: 6c8f dc3c d8c1 2ebc 95dd f13d 20fb f7be
00000200: c1a6 2b3f 7090 aa3e d60c 243d 705a f23b
00000210: 42c2 4fbe af11 153c dcd9 edbd aaa5 7ebc
00000220: fbeb c6bd e737 243e b72d fe3c f165 8c3e
00000230: 3fb1 89be 557f 073e cf85 c3bd 4a7c 9a3d
00000240: 382e 21bc 7e03 d4bd 609f c5bd 3916 c93d
00000250: 221f 783e 0df6 9fbd de26 243d 7d87 583e
00000260: c33a dabd ad90 e53d f90c 88be fb37 5b3e
00000270: 78ec 8a3c 89fb e6bd 741a c43d b5cb 5dbe
00000280: 7cf2 0bbe 1f22 d23e 87d9 9dbd d0c7 25be
00000290: 9f15 08bc d388 b23e 7de9 643d e70f 4abe
000002a0: 8286 af3d 0e8c 153e 9942 79be 248c 983d
000002b0: 0b39 03be af19 93bd 6896 b53d f6ac a83d
000002c0: 2c55 d6bd ea03 143e 4227 7cbd fd31 ed3e
000002d0: 5e6b 9ebc 6e49 93be 9d7c bcbd ab83 553e
000002e0: 343f e2be 2c1a 173d 19a7 a5bd ca9e 813e
000002f0: aa79 b9be 547b 813e f276 cfbd ecba c8bd
00000300: 8392 823e 3e2a 593b 3655 003e 66fa 593e
00000310: bf55 45be 2698 97bc 4c8f 93bd 6db3 c8bb
00000320: 2c9f 253d 2156 0ebe a673 813d 7292 5f3e
00000330: 9c2e a8be 18e0 cbbc bf60 9cbd c427 9f3d
00000340: beb9 fabb 54ad 1f3e 927d a53c a771 013e
00000350: f3c5 263e 6cb6 493d ac88 a23c 4732 6a3c
00000360: 3c09 08be e470 aa3d befe 70be 5e8e 0fbe
00000370: a1a7 2f3e 2212 6cbe 4de8 c83c 41e5 0b3e
00000380: 3149 933d ff76 09be a444 7e3d 6343 03bd
00000390: 78f7 553d 78df 503e 79cd 89bc 53d1 d93c
000003a0: bde0 7e3e f058 53bb b7ad 4ebd 8c98 103e
000003b0: fa8a 6f3e 4e8f d7bd 6b66 093e 84d2 5cbe
000003c0: c109 f63d b923 53be 4884 01be 4168 75be
000003d0: 5d8f 893d 1f10 15bd 7703 1a3e e973 33bd
000003e0: 895e 3c3d 9d92 82be 091d 5a3e 10be 5fbe
000003f0: 190b 38be a572 863e d7c3 2d3d e542 a53c
-0.11825131 -0.10363963 0.087499686 -0.048800312 -0.1699772 0.04453177 -0.0889329 -0.0022609073
0.058470245 -0.06827429 0.25543833 -0.20804623 0.17354055 0.0027459306 0.3783129 -0.30876037
-0.056180805 0.5799691 -0.1724261 0.09834713 0.13525683 0.041448392 -0.19951567 -0.036918167
0.21933697 0.095925614 -0.09087741 0.05906105 -0.29473886 -0.07986323 0.035102695 0.053306866
-0.0970793 0.001472913 -0.19830912 -0.035795465 -0.15383905 0.018803798 0.022071837 0.016845128
-0.35335785 -0.32466745 0.008591208 0.15393645 0.10920885 -0.03419667 0.2598522 0.29236197
-0.2675702 -0.23837279 -0.028744118 0.044211034 0.23085992 -0.096943185 -0.16325894 -0.06613883
-0.10695553 0.17534307 -0.020573705 -0.016715724 0.063511334 -0.09382951 -0.06119145 -0.07257949
0.3207381 0.017756566 0.20824233 0.21160057 0.16333286 0.020861229 -0.47932816 -0.024737492
-0.2653148 -0.12481082 -0.16552958 0.024631782 -0.057262067 0.12461492 -0.0060618217 -0.10186603
0.08874418 0.13951051 -0.13383657 -0.19030331 0.2154691 -0.11107257 0.11692716 0.12269053
0.028446123 -0.29208386 0.07582906 0.09458736 0.054292202 -0.012924292 -0.30989057 0.17312697
-0.01580011 -0.12637092 -0.012207345 0.00954319 -0.50627184 -0.08035863 -0.10825394 -0.018840685
-0.20327163 -0.093500465 -0.2297449 0.16877885 -0.3695074 0.0692859 -0.09043793 0.0876908
0.288667 0.047437612 0.18961638 0.12963127 -0.14315417 -0.14432633 -0.16780011 0.022039346
-0.061323605 0.16033375 -0.02062369 0.18124387 0.026923858 -0.010666333 0.118098415 -0.4843378
0.6705132 0.33313322 0.040051304 0.007396035 -0.20288947 0.009098454 -0.11613819 -0.015542427
-0.097129785 0.1603695 0.031027658 0.27421525 -0.2689304 0.13232167 -0.09547006 0.075432375
-0.00983768 -0.103522286 -0.09649539 0.09818692 0.24230626 -0.07810602 0.04007613 0.21145435
-0.10655739 0.11209235 -0.26572397 0.21408074 0.01695846 -0.11278445 0.09575358 -0.2165974
-0.13666719 0.41041657 -0.07707506 -0.16189504 -0.008305936 0.34870014 0.055886734 -0.19732629
0.08570577 0.14604208 -0.24341811 0.07448605 -0.12814729 -0.07182633 0.08866578 0.08236115
-0.10465464 0.14454618 -0.061560877 0.463272 -0.019338306 -0.2876696 -0.092034556 0.20851009
-0.44188845 0.036890194 -0.08088512 0.2531646 -0.36225635 0.25289404 -0.10130109 -0.098012775
0.25502405 0.003313675 0.12532505 0.21286926 -0.19270991 -0.018505167 -0.07205066 -0.006124905
0.040435 -0.13900043 0.06320886 0.21833208 -0.3284806 -0.02488713 -0.0763564 0.077712566
-0.0076515367 0.15593463 0.020201478 0.12641011 0.16286449 0.049246237 0.01984056 0.014294214
-0.13284773 0.083223134 -0.23534676 -0.14019153 0.17153789 -0.23053792 0.024524832 0.13661672
0.071916945 -0.134243 0.06207718 -0.032046687 0.052237958 0.20397747 -0.01682161 0.026589071
0.24890418 -0.0032249056 -0.050458636 0.14120692 0.23392859 -0.1052538 0.13417976 -0.2156468
0.12013579 -0.20619096 -0.12648118 -0.23965551 0.067167975 -0.036392327 0.15040384 -0.043811712
0.045988593 -0.25502482 0.21300139 -0.21849847 -0.17972983 0.26259342 0.042423096 0.0201735

arith.constant2 f4 [20, 20]
00000000: 12dc 073d 4757 46be 4b34 c43d 5cae 4e3d
00000010: bfcc 7ebd 9876 023e 29da 2a3d c406 b6be
00000020: 7eca 893e 7364 2e3c c5eb c6bd ab82 73be
00000030: e248 333e 8621 18bd dcf3 493d d73f 91be
00000040: 2dd0 24be cbf6 d43e e4ab 84be 60e9 833e
00000050: 9c04 11bc 9c78 25be a606 01be 356c a23d
00000060: 5acc f73a 1ba1 2b3d b18b 013e 4c5f 063e
00000070: da35 9dbd f647 413e a6a2 d03d ad71 5a3e
00000080: 6ec1 6cbd 4c8f bc3d b7b4 05be 23f1 01bc
00000090: 8579 a53d e8cb 183e d99a afbd 4c6f 11be
000000a0: cc88 813e 2dfa 763e 5539 5abe 0ddf 943e
000000b0: 95ea e63d a17c 0fbe 2a11 173e 35d6 66be
000000c0: 5527 9d3c 5cea d73d c5a5 68bd c5fa 023e
000000d0: eb8e f33e 63dd 1bbe 21b5 d1bd 7391 703d
000000e0: bc70 b73e b4d5 09be 4a09 18be 2745 83be
000000f0: 380a 35bd 8178 cdbd d9ca 1bbe 4cc3 3bbe
00000100: cb68 563e 7d28 e13c 133c f23e 9c67 81be
00000110: 4f55 80bd 480e 9e3c a599 8a3e f1ed a53d
00000120: 3916 71bd d451 743d a74b 913d b6a9 90bd
00000130: 765a d8bd f61e 813c 57d0 b4be bda9 b93d
00000140: 25ce 0abe f229 19be 1c31 36bd 8edc 193e
00000150: 79ed 0c3d 594f 183e 341f a93d 4f78 19be
00000160: cb8f 44bc bac6 fcbd 6acb 1c3e e209 88be
00000170: ff2e 83be 37fb c53d 90f9 083d e92a 46be
00000180: faa4 4abe 7d08 5cbd 091b 33bd 44d7 a93e
00000190: 4e9a 933d 9064 693d d93f 853e 1463 e4bd
000001a0: fe14 cf3d b1b3 2b3e a24f 733e f665 cebe
000001b0: 3421 28be fc9c 98bc 8f2f 9ebe 0f84 d6bd
000001c0: 0078 903d ca1e 26be a36a 4fbd 0656 ea3e
000001d0: d888 843e 2b80 123f bdeb 303e c4f5 3cbe
000001e0: 705e e2be b952 b13c 98cd 383f 0e6c 8ebd
000001f0: b99f 233d a3e8 473d 10c2 03be 46b5 fe3e
00000200: cc08 9dbe 92d1 bc3d 19be 0a3d c06f c23d
00000210: cd15 20be 0054 b8be de60 84bd 673d 3d3d
00000220: 4ac9 2c3e 9144 ef3e 98ac cb3e 93f9 afbd
00000230: 76bd 9abd 6b8a c0be d1a3 c53d 933b 3f3e
00000240: 65f8 9b3d 7fc5 33be 4913 0dbd 6ee5 7b3d
00000250: 2b42 9fbd b7fa b2be 44fa 183e a348 8a3e
00000260: 947a c03c 7c75 2fbd d0eb 0d3e a0e8 d5be
00000270: 9e61 d2be 7899 583e 14f9 293e b977 f5bd
00000280: 6d18 813e 231f 98be 5f89 67bd b79b 463e
00000290: 2a8d 9dbe d425 113d 00d3 98bd 7cdb 05be
000002a0: d268 eb3d dbc4 023e eede 9b3d 2433 27bd
000002b0: 5be9 24bd 038b 9cbe 3188 a43e 0a57 70bd
000002c0: d41a 31be 1678 643e 327b f4bd 1acb 6bbe
000002d0: 30f8 853e 0213 8dbd a0ec 893e ff82 ad3e
000002e0: 257a bfbe 95c9 893d 28f9 963c edab a23e
000002f0: f4ed 05be af67 a4be 8cf2 213e 5e08 bc3d
00000300: 08a8 0c3d ba64 f0be f057 f73b c8d6 1ebf
00000310: 84f3 1a3b efc1 5e3e 9bc7 b0bc 45be 61bd
00000320: a7e5 f8be b968 10bd e13a 863d 4958 5cbe
00000330: d70c c9bd 087c b63d bdfb ab3c f6be 8d3e
00000340: 048f 6a3d 6cfb 263e 7af3 04be b418 e53e
00000350: ea58 8d3e 9ac5 993d 7d43 0ebe 1e83 ec3d
00000360: ee9f 9c3d a366 ec3d 8ace 273e 6322 ddbd
00000370: 8725 943e f534 563e bf3a 94bd 121d eabd
00000380: 6815 a33e a04e 8dbe e17b 0abe 0669 b7bd
00000390: 878f bd3d ae01 68bd a08e d4bd 61ce 2dbe
000003a0: 6295 7d3d fce1 2cbe 6156 0bbc 5280 003e
000003b0: 2b0b 3c3e d3bc 793d f11d 20bd 4c15 323e
000003c0: ddf8 133e edfd 28be 919a 0abe 7ccf 823d
000003d0: 65c1 7d3e 3ad1 143e d940 cc3e ea69 9ebe
000003e0: e509 85bd 0017 a7bc 0bcb 5b3e 7914 4f3e
000003f0: bfd2 b23d a500 09be dbb2 b8bd 7f03 56bd
0.03316886 -0.19369231 0.095802866 0.05045925 -0.06220698 0.12740552 0.04171196 -0.35552037
0.26912302 0.010644066 -0.09712938 -0.23780315 0.17508271 -0.037141345 0.049304828 -0.28369018
-0.16095038 0.41594538 -0.25912392 0.25763988 -0.008851197 -0.1615929 -0.12600192 0.07930795
0.0018905506 0.04190169 0.12650944 0.1312229 -0.07676287 0.18875107 0.10187273 0.21332426
-0.057801656 0.09207019 -0.13057218 -0.007931027 0.08079819 0.14921534 -0.08574457 -0.14202613
0.2529968 0.24118872 -0.21310933 0.29076424 0.11275212 -0.14012386 0.14752641 -0.22542651
0.019183794 0.105427474 -0.056798715 0.12790973 0.47569975 -0.15221171 -0.10239626 0.05873246
0.35828197 -0.13460428 -0.14847293 -0.25638697 -0.0441992 -0.1003275 -0.15214099 -0.18336219
0.20938413 0.027485127 0.47311458 -0.2527436 -0.06266271 0.01929392 0.27070346 0.08102024
-0.058859084 0.05964835 0.07094508 -0.0706362 -0.10564129 0.015761834 -0.353152 0.09065578
-0.135552 -0.14957407 -0.044480428 0.15025541 0.03440616 0.14874019 0.08257905 -0.149873
-0.011997174 -0.123425916 0.15311971 -0.2657004 -0.25621793 0.09667056 0.033441126 -0.19352306
-0.19789496 -0.053719033 -0.043726955 0.33172047 0.07207166 0.05698067 0.26025274 -0.1115171
0.10111426 0.16767766 0.23760846 -0.40312165 -0.16418916 -0.018629543 -0.3089566 -0.10474407
0.07054138 -0.16222683 -0.050638806 0.45768756 0.25885653 0.5722682 0.17277427 -0.18453127
-0.44212675 0.02164589 0.7218871 -0.069542035 0.039947245 0.048805844 -0.12866998 0.49747676
-0.30670774 0.0921966 0.033872698 0.09493971 -0.15633316 -0.36001587 -0.064637884 0.046201136
0.1687366 0.46732 0.39780116 -0.085925244 -0.07555668 -0.37605605 0.09650386 0.1867507
0.07615737 -0.17555808 -0.03444222 0.061498098 -0.077762924 -0.34956905 0.14939219 0.27008542
0.02349595 -0.04283665 0.13859487 -0.4177904 -0.410901 0.21152294 0.16598922 -0.11985726
0.25213948 -0.29711255 -0.05652749 0.19395338 -0.30771762 0.035436466 -0.0746212 -0.13072008
0.11494602 0.12770407 0.0761088 -0.040820256 -0.040261608 -0.30574808 0.32135156 -0.058676757
-0.1729539 0.22311434 -0.1193756 -0.23026696 0.26165915 -0.06888391 0.26938343 0.33889005
-0.37397876 0.06727902 0.018429354 0.31771794 -0.13079053 -0.32110354 0.1581518 0.091812834
0.034339935 -0.46951848 0.0075483248 -0.6204648 0.0023643682 0.21753667 -0.021579554 -0.055113096
-0.4861271 -0.03525612 0.06554199 -0.21518053 -0.09816902 0.08910376 0.020994062 0.27684754
0.057265297 0.16306847 -0.12983504 0.4474541 0.276069 0.07508393 -0.13892932 0.11548446
0.07647692 0.11543014 0.16387382 -0.10797574 0.2893488 0.20918639 -0.072377674 -0.11431326
0.3185227 -0.2759905 -0.13523819 -0.089555785 0.09255891 -0.056642227 -0.10378766 -0.16973259
0.06191004 -0.16883081 -0.008504481 0.1254895 0.18363635 0.060971092 -0.039091054 0.17390937
0.14450403 -0.16503115 -0.13535525 0.06387231 0.24780805 0.14532939 0.39893225 -0.3094018
-0.06496028 -0.02039671 0.21464173 0.20222653 0.08731603 -0.13379152 -0.09018489 -0.052249428

arith.constant3 f4 [20, 20]
00000000: b097 ae3e f128 eb3e 5de5 403f 4009 8d3b
00000010: e6cf 84bd 2e6d 71be 1e0e 37be fee0 10bd
00000020: f85a 0c3e 27d8 d13e c7ff efbd 0002 1a3e
00000030: fd14 6f3d db6c b8be 85a4 84be 16bf 073f
00000040: 4d7a 80bd d8c8 8c3e bd5d 7cbd 4ffb 913e
00000050: e41f ac3d 6194 bebc 7f7f d0bc 2576 5bbe
00000060: 8ea1 2fbe a949 f03d 6dfd 3f3d 666a 5cbe
00000070: 31c9 81bb df2c 963d 552b ac3e b0ed 543e
00000080: 2fc3 cdbd ab1b 5dbd 838b 7d3c eb98 0c3c
00000090: 4b6d a33d 1b39 c73d 82af 383e 17b6 943e
000000a0: 345f b73d db55 9ebe 24d0 e5be 70f9 833e
000000b0: 19a6 31be 7905 bc3e 7f5c 2ebe bc98 c63e
000000c0: d590 c53d 8c77 1bbf 6f80 3ebd 2fdb 11bf
000000d0: 2c6b b8bd cdf9 ba3d 4431 793e b172 04bd
000000e0: 0d73 7ebd ad33 dbbe 0bb8 f2be 1818 15bd
000000f0: 5544 88be 7314 7a3e c486 b5be f9e6 15bd
00000100: 3cbd 253e 2a98 173e eea9 103e f049 243e
00000110: 8d5b 6e3e 761c 10be 6802 8e3c 03b0 8bbe
00000120: 3a09 08be 9933 d73e df4e 5bbe a9ff f03d
00000130: 1cb1 4ebe 5033 30be 1182 02be 2539 043c
00000140: 56af 8f3e 563c 60be 847a 813e aec2 583e
00000150: cf31 03bf 03c0 96be 3886 0dbd 6526 cc3a
00000160: a126 893e 99e0 243e 4ccf 90be d877 193e
00000170: 5d3f 4dbf 00cb 7abe 1131 89be 8422 b6be
00000180: b160 bd3c 3d43 52be 16af 18bd 6ed6 c8bd
00000190: 8943 01be 3ce6 9ebe 40ce 713e e53b 08be
000001a0: e722 85be 39f3 ea3e 709b ba3e 0a5a c0be
000001b0: 31dc 013e e3ee b43e 356b 113d b320 51be
000001c0: a936 c23e 251e 493d c1d9 343e c09d c93e
000001d0: 2cd0 5ebc 3e54 03be eb54 b93d 2937 89be
000001e0: a8f2 8cbe 346c a6bd 40d7 2cbf 1e9d 92bc
000001f0: 0f28 953e c3d4 9abe 5b37 dabd ce29 cebc
00000200: 1e45 28bf 47bb 77be 0156 36be 4bae a43d
00000210: 7658 263f 2bc9 943e c290 86be 0772 793e
00000220: 27d8 cbbe a6cb 58bf 5531 02be c545 1dbf
00000230: 7654 5e3e 9da9 e03e 4378 b5be 465a 2cbe
00000240: 4344 dcbe ebb9 42be ed7b 7fbe aa85 dabe
00000250: 0cd8 923e fa2e 4f3e 71c3 14be a581 d83e
00000260: a092 96be 43fe 4f3c f589 4abe 0c1f 4bbd
00000270: 54ea 47be a196 98be b211 e53d 359e 603e
00000280: f48e 353d 9a18 c23d 3596 97be 0840 43bf
00000290: cb54 373e 8cb3 78be 1467 f5bd 146f a9be
000002a0: 7567 473e 5165 6b3e a2b7 0ebe d2d7 83bd
000002b0: 5788 d63e a2c2 d23d cea6 82be 3f99 2dbe
000002c0: 5941 b23d 206b 4b3e 0e0e d03c 09ee c3bd
000002d0: 5d90 19bf 54ed 8e3e 76cd 923e 123f cbbd
000002e0: 83e2 0dbe e295 a23a bb8e 093e 2b24 ba3e
000002f0: 2553 8d3e 1d3e 9c3e 5966 39bd 9429 9abc
00000300: c692 903e 17cb 58be d6c8 2bbe bbb7 ed3e
00000310: 4ebe 50bd 033e eb3e bd49 f7be 88ca 4d3e
00000320: 8c31 c0bd 46ef 5ebe fd14 80bd aa93 a93e
00000330: 2894 c2be 127b ed3c a5f5 cb3e 801e 8bbe
00000340: 711e 45be d7ff 303d 76a2 903e a9e4 8e3c
00000350: 922e b3be 9532 343d 6dc4 d7bd e1f7 163e
00000360: 6b60 5e3e f5fe d4be b1c9 b63c e5c4 5abe
00000370: e332 db3e e39d 593e 0666 0cbd d287 cdbd
00000380: 9f8d d0be fb2f 7cbe 36a8 a83e fd52 6abe
00000390: 11f6 a73e 538b 51be c636 05bf 61b7 ecbe
000003a0: 0532 9fbe 37a7 b2be 9386 54bd e6f8 39bb
000003b0: 163b da3d 8614 03bf 034b b5be 4a87 833e
000003c0: 00e0 f2bd fde6 563e 1aeb 72be 66ac 57be
000003d0: a1f0 923f 9087 85be d20f 96bd 233e 973e
000003e0: e6be be3d 1687 8b3c fc9d 9dbe dab8 5f3e
000003f0: d915 273e cd8a fe3d 5661 cdbd 3017 883e
0.34100103 0.45929673 0.7534998 0.004304081 -0.06484966 -0.23576805 -0.17876479 -0.03537082
0.13706577 0.40985224 -0.117187075 0.15039825 0.058369625 -0.3602055 -0.25906768 0.5302595
-0.06273327 0.27496982 -0.061612833 0.28512046 0.0840452 -0.023264112 -0.02545142 -0.21431787
-0.17151472 0.117327996 0.046872545 -0.21524963 -0.0039607515 0.07332777 0.3362681 0.20793796
-0.10046994 -0.053981464 0.015475157 0.00858138 0.0797983 0.09727689 0.18035701 0.29045174
0.089537054 -0.30924878 -0.4488536 0.25776243 -0.17348517 0.36722925 -0.17027472 0.38788402
0.09646765 -0.6072929 -0.046509203 -0.5697507 -0.090048164 0.09129677 0.243352 -0.03233594
-0.06212144 -0.42812863 -0.4740604 -0.03639993 -0.26614633 0.24421863 -0.3545438 -0.036597226
0.16185468 0.1480414 0.14127323 0.1604383 0.23277111 -0.14073357 0.017335132 -0.27282724
-0.1328477 0.42031553 -0.21416806 0.11767513 -0.2018475 -0.17207074 -0.12744929 0.008070265
0.28063458 -0.21898016 0.25288785 0.21168014 -0.51247877 -0.29443368 -0.03455183 0.0015575407
0.26787284 0.16101302 -0.28283155 0.14987123 -0.8017481 -0.24491501 -0.26795247 -0.35573208
0.023117395 -0.20533462 -0.03727635 -0.09806524 -0.12623419 -0.3103503 0.23613834 -0.13304098
-0.2600319 0.4588869 0.36446714 -0.37568694 0.12681653 0.35338506 0.03550263 -0.2042263
0.37932327 0.049101014 0.17661192 0.39378166 -0.013599437 -0.12825105 0.090494 -0.26799896
-0.27528882 -0.08126107 -0.67515945 -0.017897185 0.29132125 -0.3024045 -0.106550895 -0.025166418
-0.65730464 -0.24192534 -0.17806245 0.08041056 0.6497873 0.2905973 -0.26282316 0.24359904
-0.3981335 -0.8468574 -0.12714131 -0.61434585 0.21711907 0.43879405 -0.35443315 -0.16831312
-0.4302083 -0.19016235 -0.24949618 -0.42680103 0.28680456 0.20232764 -0.1452768 0.4228641
-0.2940874 0.012694898 -0.19779189 -0.049590155 -0.19522983 -0.2980242 0.11185016 0.21935351
0.044325784 0.094773486 -0.29606786 -0.7626958 0.1790344 -0.24287242 -0.11982551 -0.33092558
0.1947306 0.22987868 -0.13937238 -0.06437649 0.41900894 0.102910295 -0.25517887 -0.1695299
0.0870387 0.19865084 0.025397327 -0.09566886 -0.59985906 0.27915442 0.2867238 -0.09924139
-0.13855939 0.0012404288 0.13433354 0.3635572 0.27602497 0.3051614 -0.045263622 -0.018818654
0.2823698 -0.21171223 -0.16775832 0.46429238 -0.05096274 0.4594575 -0.48298445 0.20096791
-0.0938445 -0.21770963 -0.06254003 0.3312047 -0.3800366 0.028989349 0.3983585 -0.27171707
-0.19249894 0.043212738 0.28248948 0.017443018 -0.34996468 0.04399355 -0.10535512 0.14742996
0.21716468 -0.41600767 0.02231297 -0.21364172 0.4281226 0.21251635 -0.034276985 -0.10035671
-0.40733048 -0.24627678 0.32940835 -0.2288322 0.3280492 -0.20463304 -0.520367 -0.46233657
-0.3109285 -0.348932 -0.051886152 -0.0028377115 0.10655801 -0.5120319 -0.35408792 0.25689155
-0.11859131 0.20986553 -0.23722497 -0.21061859 1.1479684 -0.26079988 -0.07327236 0.29539594
0.09313755 0.017032187 -0.30784595 0.21847859 0.16316928 0.12428818 -0.10028331 0.2658019

arith.constant4 f4 [20]
00000000: 4266 ea3e ef97 093e 1064 123f c515 043f
00000010: 34d8 c33e e425 003f 8931 603e d998 853e
00000020: 75b1 423e a7c5 ff3e edc9 833e 0ef2 073f
00000030: d00e 2e3f 522c 103f d90b b13e 6acc 0e3f
00000040: 5c59 ea3e 1d22 f03e b2e1 b23e aff7 3a3e
0.45781142 0.13436864 0.57183933 0.5159572 0.38250887 0.50057817 0.21893896 0.26093176
0.19013007 0.49955484 0.25739995 0.5310372 0.6799135 0.5631763 0.34579352 0.5578066
0.457713 0.46901026 0.34937817 0.18258546

arith.constant5 f4 [20]
00000000: 00a6 bbbd cee8 cfb8 ffa1 0abc 7253 023e
00000010: 5371 e33c fe77 9a3d 9636 b23b 6baf 823d
00000020: 3d0f 993c 15f7 04be 88eb b7bc 4e77 713c
00000030: c8cb a1bd a761 afbd 278b abbc 2e6e bdbd
00000040: 064a 14be 3ef6 35bd 611e a4bc 45e5 e4bb
-0.09162521 -9.9138924e-05 -0.008461474 0.12727144 0.027763998 0.07542418 0.005438636 0.063811146
0.018684024 -0.1298488 -0.022451177 0.014737917 -0.07900196 -0.085635476 -0.020940376 -0.09249531
-0.14481363 -0.044424288 -0.020034017 -0.006985339

arith.constant6 f4 [20]
00000000: 6095 7a3f 337f 893f 6886 933f 9f16 883f
00000010: d499 a53f 7719 7e3f a17d 7c3f f035 893f
00000020: e40f 7e3f 4ed2 893f d623 8d3f 62a0 993f
00000030: 3e83 893f 5a7a 873f 4a8d 8a3f cccf 863f
00000040: 1a24 6c3f c3c8 9c3f 8838 8d3f 7e15 8e3f
0.9788418 1.0741943 1.1525393 1.0631903 1.293757 0.99257606 0.98629194 1.0719585
0.99243 1.0767305 1.1026561 1.200207 1.0743177 1.0584214 1.0824368 1.0532165
0.92242587 1.2248768 1.1032877 1.1100309

arith.constant7 f4 [20]
00000000: 5ed1 d73e 207f 9a3e a53e 11bd c861 6f3e
00000010: 0a20 de3e 5613 b43d f71b 7d3c ac89 3e3e
00000020: 9d77 ba3e 3344 ea3e 0e56 2d3c 391e a33e
00000030: 797e e13e bf50 923e 7e78 b33b 9bb3 403e
00000040: d441 103e f134 9d3d f4db d5bb b668 f73d
0.42151922 0.30175114 -0.035460133 0.23377144 0.4338382 0.087927505 0.015448562 0.18607205
0.36419383 0.45755157 0.010579599 0.31858996 0.44041803 0.2857723 0.0054770103 0.18818514
0.14087611 0.076761134 -0.0065264646 0.12080519

arith.constant8 f4 [20, 28]
00000000: 4339 2d3e dd56 753e 10f3 103d 339b acbb
00000010: 0714 953e 38b1 003f e780 033d e94d af3e
00000020: e1b6 843e d064 753e 704c 3d3e dee2 033e
00000030: 706b 233e c152 013f 2461 403f 434a 313f
00000040: f40d 043f cbf1 27be 9b1c 11be 7184 b93d
00000050: 6f13 d43e df1b ea3e 8a77 e23e 629e 0b3f
00000060: 0764 c13e 935b 5a3e e085 153f f24d c2bc
00000070: 7214 12bd 0fbf 943d f4ae fe3e 0550 d03e
00000080: 4ba1 47bd dc20 14be 7fad 9bbe 3ef5 3ebd
00000090: 1242 d93d 3ba8 8dbe 4b0b da3c 1ef5 4b3c
000000a0: 6ebd 073f bf69 853e 1812 8c3d 3462 debe
000000b0: 68a3 dfbe e9f2 6cba 6813 bbbd 05c6 323d
000000c0: c331 11bc f6e3 743e e837 93be 061a 843d
000000d0: c8b7 8bbd a940 a8bd 5bb6 3b3e 17c8 703e
000000e0: 6f0f 23bc 5e59 a53e 55bf da3e 5c7b b43e
000000f0: d9cc 3e3e 52ec 193e 32db c93d 57b2 40bd
00000100: 0b1d 433d 8dac 1c3f 4dc5 383f 91b8 073f
00000110: 647b 073f 68b2 e13e 76a7 eb3d b2b1 77bd
00000120: 3013 45bc 2481 143e a2ca 833e d014 1c3f
00000130: 5e6f f53d 0412 fa3d a368 e53e 4fb3 273e
00000140: 17b2 3e3e 08ac 01be 5153 213c 8b41 c83e
00000150: b35a b53e 868c df3c 6688 bc3d 5eb2 69be
00000160: f9d4 e6be ad6f afbe e080 b5bd c562 993d
00000170: 3581 933e e266 4c3e 6a19 2a3f 5d16 f03e
00000180: eb7f 5f3f a824 3d3f 53bb 2a3e 78c4 dabc
00000190: 37f3 c2bd 7233 c8bc 1b42 20be d594 0f3e
000001a0: e57b 3a3e e2cf 703e 1332 ac3e c12e 0b3c
000001b0: ba60 bcbd c840 2a3e fdf8 c53e 2737 0dbd
000001c0: 8e36 81bd bfb1 cb3d 69df 953e c578 7d3e
000001d0: e85d e13e 148a 833d eec3 ec3c 37a2 933e
000001e0: 80fa 043f b8eb 2e3e 93cd cd3d 71ba 7d3e
000001f0: b06e 9d3e 5ece a93e 8e5a 8f3d 17d2 1abf
00000200: 7464 05bf 2de9 febe d5c4 afbd 3e6e ff3c
00000210: d6d0 023d 81d1 d2bd 9168 833e 8aee adbc
00000220: 95fa 08bf 2768 b7bd f54f 593e 9d43 493e
00000230: 5df0 2ebe a108 803e 97ac 28be fca4 d437
00000240: dcb0 8b3e 6ac0 753d 4a83 043e 9da6 b93d
00000250: 818b 583d 06a1 3bbd f409 043e 8723 e5bc
00000260: 1aab 1e3e 8f0b 9c3e 9e9c 373f 93f6 073f
00000270: 6179 813c d87b d23d 2d74 b13e 08a1 3c3e
00000280: 3e1f 373e 5832 1cbc 27aa 853d 4883 0c3f
00000290: ddc4 053f ebaf 853e 581a 49bd ca67 62be
000002a0: 83c3 683e 058d 583d 4918 a0bd f223 233e
000002b0: 646f c23e 1a68 873e c6de a2be 38b7 113e
000002c0: 8d34 053e 7995 223e e058 113f 6467 0e3f
000002d0: f245 433e ca85 5b3e e486 823e 9687 99bd
000002e0: 21de 2e3e 365c 7b3e 03f2 de3d c3bf 593d
000002f0: ad50 23be a53a 88be 7ae4 6fbd 1036 c6be
00000300: 854c a3be 83e0 4dbe 91bc 3e3d d794 b33d
00000310: dfc0 efbd f263 c13c ed2d 40bd ab5a 0bbe
00000320: 55e6 1fbe 5003 8abe 88d5 24bd f865 b43d
00000330: 6033 3a3e ee7b 563d 14b6 fd3d d75e d7bd
00000340: 7079 c13e b426 d33e 153a 303f f1a7 243f
00000350: 3315 033f 2f26 2b3f 58b7 673f e120 373f
00000360: 6b1a 033f 882e 673e a7f1 053f 9dd3 823d
00000370: 5388 26be e9af b5be e12d 44bf 1460 f4be
00000380: d18c bfbd ec23 5abe 9f44 b33c 69a4 b5be
00000390: 9dda 01bf 1e98 bdbe f0ec b6bd 5ea2 bdbe
000003a0: 618f cabd 3da1 77be 79a3 5f3e a796 133f
000003b0: 2215 823f f1db 633f 3ea6 333f b76a af3d
000003c0: b654 0b3d de74 fe3d f1e7 823e c3c0 58be
000003d0: 2edc 0fbe 57c1 d4be fdc3 0abf 5c1e 0dbf
000003e0: 302a efbe 6966 05bf 6ee2 fdbe 036c d9bd
000003f0: 099b febc 93ec 5fbe 57aa 89bd 2532 16be
0.16916375 0.23958917 0.035388052 -0.0052675246 0.29116842 0.50270414 0.032105353 0.34239128
0.25920776 0.23964238 0.1848619 0.12879512 0.15958953 0.505169 0.75148225 0.6925394
0.5158379 -0.1640083 -0.14171068 0.09058464 0.41421077 0.4572439 0.44231826 0.5453855
0.37771627 0.21323995 0.584074 -0.023718808 -0.03566403 0.07263004 0.49742854 0.4068605
-0.048737805 -0.1446566 -0.30405805 -0.0466206 0.10608305 -0.27667412 0.026616713 0.012448577
0.5302342 0.2605724 0.068393886 -0.43434298 -0.43679357 -0.0009038882 -0.09134561 0.043645877
-0.008861962 0.23915085 -0.2875359 0.06450276 -0.06822163 -0.08215458 0.18331282 0.23513828
-0.00995241 0.32294744 0.427241 0.35250366 0.1863283 0.15031555 0.09856261 -0.047045078
0.04763512 0.6120079 0.7217606 0.53016 0.52922654 0.44081426 0.1150655 -0.060472198
-0.0120285 0.14502388 0.25740534 0.6096926 0.11984132 0.122104675 0.44806394 0.16376995
0.18622623 -0.12663281 0.009846524 0.39112505 0.3542076 0.027288686 0.092057034 -0.22821948
-0.4508436 -0.3426489 -0.088624716 0.07489542 0.28809515 0.19961122 0.6644503 0.46892062
0.8730456 0.7388406 0.16673021 -0.026705012 -0.09519046 -0.024438594 -0.15650217 0.14021619
0.18211325 0.23516801 0.33631954 0.008495034 -0.09198137 0.16626275 0.38666525 -0.034476425
-0.063092336 0.09946012 0.2927201 0.24753101 0.44016957 0.06422821 0.02890202 0.28834698
0.5194473 0.17082107 0.10048976 0.24778153 0.3074851 0.33165258 0.06999694 -0.6047682
-0.52106404 -0.49787274 -0.085824646 0.031180497 0.031937443 -0.10293866 0.25665715 -0.021231908
-0.5350736 -0.08955412 0.21221907 0.19654699 -0.17083879 0.25006583 -0.16472088 2.5349196e-05
0.2728337 0.059997953 0.12940708 0.09064982 0.052867416 -0.04580786 0.12894422 -0.027971042
0.15494958 0.30477569 0.71723354 0.5311062 0.015804948 0.102775276 0.34658948 0.18420804
0.17883012 -0.009533487 0.065265946 0.5488782 0.52253515 0.26110777 -0.04909739 -0.22109905
0.22730832 0.05286886 -0.07817132 0.15931681 0.3797561 0.2644661 -0.31810588 0.14230049
0.13008328 0.15877332 0.5677624 0.5562651 0.19069651 0.21437755 0.25493538 -0.07496564
0.17076923 0.24546894 0.10886004 0.053161394 -0.15948744 -0.26607242 -0.0585675 -0.3871312
-0.31894317 -0.20105176 0.04656655 0.08768623 -0.11706709 0.023607228 -0.0469188 -0.13608806
-0.15615208 -0.26955652 -0.0402427 0.088085115 0.1818366 0.052364282 0.12388244 -0.10516136
0.37787962 0.41240466 0.68838626 0.6431876 0.5120422 0.6685514 0.90514135 0.71534544
0.51212186 0.22576344 0.5232186 0.06388018 -0.16262941 -0.3548577 -0.76632506 -0.47729552
-0.093530305 -0.21302766 0.021883307 -0.35476997 -0.507242 -0.3703012 -0.08931911 -0.3703794
-0.098906286 -0.24182601 0.21839704 0.5765175 1.0162699 0.8900748 0.7017554 0.08565276
0.034016334 0.124246344 0.25567582 -0.21167283 -0.14048836 -0.41553757 -0.54205304 -0.5512445
-0.46711874 -0.5210939 -0.49586815 -0.10616305 -0.031079786 -0.2186759 -0.06721943 -0.14667566

arith.constant9 f4 [20, 28]
00000000: 6f41 c2bd 9012 5d3e 14f8 3d3d f4f5 543d
00000010: 719a 253e 9185 2abd bd2a 1c3e f30c 9e3e
00000020: 3846 4b3e 5367 ac3e 75d7 893e e85c 933e
00000030: a0e3 0e3e 7a54 97bd 2877 28be 7409 a03c
00000040: f70b 023e ca0a 543e 7d1f 393e 2410 a63c
00000050: 9031 253d 6a16 193e c612 20bd 3bda 8abc
00000060: 04d6 f9bd 13ac 033e 9b55 bebd 86f2 813e
00000070: 6dd8 0a3e a793 063d bd34 913d 7ab5 79bd
00000080: d916 57be 1628 35be d8cc 7bbd 19e7 33be
00000090: 172d 853e f288 513c d55a 743d bca6 1b3e
000000a0: f47a 923e a8b6 b8bd af13 03be 2b22 50be
000000b0: 9b46 453e f4a4 d23e 6268 0a3f 94b6 213f
000000c0: 9542 013f c0e1 b83e 62de c23e 2a2e 103f
000000d0: 070d d33e 0334 a7bd db83 2ebc 91ec 6c3d
000000e0: 85f0 4ebd 1f98 023e 104a 4ebe d563 113e
000000f0: a31f 1c3d 63fe 07be 81ff d33d 1a55 0abd
00000100: 2a42 0a3e 1fcf f8bd c494 863d bda7 3a3e
00000110: f2ce c43e ddf4 803e 009f b1bb a174 cb3d
00000120: 3194 e0bd fbb4 663d 3349 9fbd 3d50 3fbe
00000130: 9c51 46be 007a abbe e289 a4be 0209 8dbe
00000140: f7af 8abc 452a 03be 2121 2e3e 8b5a 113e
00000150: 70bc ba3d a0f2 bdbb 4f9a 8c3d 7e55 f9bc
00000160: 960c 4fbd 7344 723e 9f09 3e3e 5235 183e
00000170: 3d7c 823d b732 4c3e 44d4 fdbd e2d3 c13d
00000180: a495 34bd 1139 60bd 9c17 94bd 625f 03be
00000190: 9a75 77be 797d a7be 5ff2 fbbe 9c5f 19bf
000001a0: 4c28 1abf 30a8 16bf ef53 1abf 6cda 36bf
000001b0: 570e f7be 8519 9abe 20d6 b13d ef2a 6e3d
000001c0: 700f a43d 5226 c23d 242e b03e 9b5e 253f
000001d0: 849c 173e 29ab 04bd e72e 0a3e 5968 31bc
000001e0: 2d2f c2bd fc7b b9be 110b 2abe e276 89bd
000001f0: 1119 52bd 7719 68be feb0 06be db78 da3b
00000200: 0408 e13e 4e99 ff3e 1936 ea3d c4a9 923e
00000210: bcd6 5a3d ac92 f63d 53c1 323e 9aaf ea3d
00000220: aa70 a6bd 4a24 7dbe 2627 9abd 9ed6 d03b
00000230: f08a fdbb 8a46 ac3d b47d 853d d425 df3d
00000240: d899 53bd ec6f 60be d920 673c b4fb 1dbd
00000250: 4f76 bd3c fab6 da3d d3b4 42be 128c e6be
00000260: ceed 9dbe 2c1b 08be e58a 733d 08e4 063d
00000270: 75c1 ebbd 1e55 9abe d2a1 eabd f9c6 a6bd
00000280: 6a4f 4f3e 188a 923e 8bae 7e3e 6405 d53e
00000290: 5dd8 133f 7bc4 e33c 52e8 2bbd bf63 b0bd
000002a0: 59cb 763d 227a 7bbe e897 15be 0b2f 4a3e
000002b0: f806 a73e b40c fb3e b14f 843e 7cc4 e13e
000002c0: ab82 b53e d004 ac3e b181 173e 8381 81bc
000002d0: 66b7 e03c 2fab a8be 42f7 f0bd 60da c5bd
000002e0: 3790 543e 9720 e9bd 15cc 04bd d976 69bc
000002f0: 1a98 66be 2b59 d8bd 1090 c33d 2b02 48be
00000300: 654f 843e 2a40 6d3e ff60 9f3d e275 b0bc
00000310: ae64 81be 451d 033e 9826 f0bc 132e 32be
00000320: 5103 0abe e9a3 0bbf 76cf a3be 658e 11bf
00000330: 13a0 09bf 1334 15bf ea36 0cbf de17 20bf
00000340: 91a0 c2be ecca 57be cfde f2bd 9c9a 8d3d
00000350: 521d 5c3e 1c2c 78bd 3956 403e 86df 9bbc
00000360: 839d 633d b06d ef3d 8d10 703c 07d3 d63b
00000370: de40 50bd 8eb4 093e a34d c93e 7fd8 d43d
00000380: 37ce a43d a988 0cbe c2f0 d7bd f52b 52bd
00000390: ba44 03bf bb99 d7be 6a86 09be 619e 7fbe
000003a0: ddb9 d8bd cf60 a23e e431 993e 3827 be3e
000003b0: 6be8 bf3d 7cd8 10be b9f7 94be 6aab 093e
000003c0: 9c95 f4bd cc15 c5bc b7f4 d8bd 2339 efbd
000003d0: a2d6 173d d3a1 28be a255 8a3d dd48 20bc
000003e0: 6160 d9bc b657 26bd 1f7b 6fbd bc0a 9fbe
000003f0: 7d35 99bc fef5 663e 87f0 3abe 6c8c 93bd
-0.09485137 0.21589112 0.046379164 0.05199237 0.16172196 -0.041631285 0.15250678 0.30869254
0.19851005 0.3367258 0.26922193 0.2878182 0.1395402 -0.073891595 -0.16451705 0.019535758
0.12699877 0.2070724 0.18078418 0.020271368 0.04033047 0.14949957 -0.039080404 -0.016949764
-0.12199023 0.1285861 -0.09293672 0.25380343 0.13559122 0.032855656 0.07090137 -0.060964085
-0.2100481 -0.17691073 -0.06147465 -0.17568626 0.26010963 0.012788998 0.059656937 0.15200323
0.2860943 -0.09019214 -0.12800477 -0.20325534 0.19265215 0.41141474 0.54065526 0.6316922
0.5049222 0.36109734 0.3806029 0.5632044 0.41220877 -0.08164217 -0.010651554 0.057842795
-0.050522346 0.12753342 -0.2014544 0.14198239 0.03811611 -0.13280635 0.10351468 -0.033772565
0.13501802 -0.1214888 0.065713435 0.1822805 0.38439137 0.25186816 -0.0054205656 0.099343546
-0.10965765 0.05632494 -0.077776335 -0.18682952 -0.19367069 -0.33491516 -0.32136446 -0.27545935
-0.01692961 -0.12809093 0.17004825 0.14194696 0.09117973 -0.0057967454 0.068653695 -0.030436274
-0.050549112 0.23658924 0.18558358 0.1486409 0.06371353 0.19941221 -0.12394002 0.094642416
-0.04408802 -0.054741923 -0.07231066 -0.12829354 -0.24165955 -0.32712916 -0.49208352 -0.59911513
-0.6021774 -0.58850384 -0.6028432 -0.71427035 -0.48253128 -0.30097595 0.08683419 0.058146413
0.08010757 0.09479965 0.34410203 0.6459748 0.148058 -0.032389794 0.13494454 -0.010828101
-0.09481654 -0.36227405 -0.16605784 -0.06712128 -0.051293436 -0.22665964 -0.13153455 0.006667239
0.43951428 0.4992165 0.114360996 0.28645146 0.053427443 0.12039694 0.1745656 0.114592746
-0.08126958 -0.24720874 -0.07526998 0.0063732406 -0.00773751 0.08411892 0.065181166 0.10895887
-0.05166039 -0.21917695 0.014106953 -0.03857012 0.023127703 0.10679431 -0.19014291 -0.4502874
-0.30845493 -0.13291615 0.059458632 0.03293231 -0.115115084 -0.30143064 -0.11456646 -0.0814342
0.20245138 0.28620982 0.2487127 0.41605675 0.5775202 0.02780365 -0.041969605 -0.08612775
0.06025252 -0.24558309 -0.14608729 0.19744508 0.32622504 0.4903313 0.2584205 0.44095218
0.35451254 0.33597422 0.14795567 -0.015808826 0.027431201 -0.32943103 -0.11765911 -0.09660792
0.20758139 -0.11383169 -0.03242119 -0.014249527 -0.2251896 -0.105638824 0.09548962 -0.19532077
0.25841823 0.23169008 0.077821724 -0.021540586 -0.25272125 0.12804134 -0.029315278 -0.17400388
-0.13477828 -0.5454698 -0.31994218 -0.568579 -0.5375988 -0.58282584 -0.5477129 -0.6253642
-0.38013127 -0.21073502 -0.118589036 0.06914255 0.2149556 -0.06058894 0.18782891 -0.019027483
0.055570137 0.11690843 0.0146523835 0.006555918 -0.050843112 0.13447782 0.39317045 0.10392856
0.08047145 -0.13724007 -0.10543968 -0.051311452 -0.51276743 -0.42109475 -0.13430181 -0.2496276
-0.105823256 0.31714484 0.29920876 0.37139297 0.09370502 -0.14145082 -0.29095247 0.13444296
-0.11942598 -0.024058245 -0.10593551 -0.1168082 0.037069924 -0.16467981 0.067546144 -0.009782997
-0.026535215 -0.04061099 -0.058467027 -0.31062877 -0.018702263 0.22554776 -0.18255816 -0.07204518

arith.constant10 f4 [20, 28]
00000000: 7da9 4a3b 587f 8f3e 3050 9f3d 3832 d63e
00000010: 302d 5b3e a1ab 913e e479 e3bc ab1d 843e
00000020: fd41 063e 4d31 853e c23f e4bd 726d 8cbe
00000030: 3235 ecbe 32f8 c5be 49fe b13c 82fd fa3e
00000040: da0c ae3e df30 2a3e a1ed e63c eea1 5ebe
00000050: 55e2 7b3e eb88 1c3e 1a31 243e d46a 993e
00000060: 159b 823e 9c59 48bb 7c6a 6c3e ff78 4a3e
00000070: 85d9 3abe da24 443d c3f0 523e 33b6 753e
00000080: cede 65be fb05 eabe 2274 dcbe 7063 77bd
00000090: a438 153e 56ef 60be e578 81be c061 c03d
000000a0: 43bc 003e cc98 bd3c 6fb9 5cbd 9bbd a4be
000000b0: 1af4 83bd 9561 153c d714 743e 62a7 903e
000000c0: 2d35 223f 3642 9a3e 97fc eb3e 67ce 0c3f
000000d0: fdf8 293f a227 193e 5bd7 373e fe2b 0a3e
000000e0: 35ea 7ebd 17d0 f0bd b263 3a3d aa19 fb3d
000000f0: e387 0f3e bf21 8d3e f5a5 7c3e f798 e53e
00000100: 302b f73e b730 8a3c 21fb e53d 9962 abbe
00000110: 9b97 fdbe 214e 463d 2c45 8fbe 15ca 42be
00000120: 33f1 edbe 6290 e1be ef8d cabe d925 193a
00000130: bff2 4cbe e22b 32be 218e 1dbe 0311 c5be
00000140: 401b 59bd 54df 69be 9a70 65be 9982 43bc
00000150: 3ef1 2b3d 85d0 503d eba4 753e e729 5cbe
00000160: 7386 d1bd e193 a0be a0fc 89be 5d87 37bc
00000170: 7913 573d 8f44 f8bd 375b ecbd b856 57be
00000180: 59c7 953e a645 a63e 807b a83d 82bd 4e3e
00000190: ad7c 243e 54e5 903e 13d3 fc3e bb2b d03d
000001a0: 4f48 03bd c6c7 e63d 5dfd 073e a377 403c
000001b0: e118 b2bd 205e 0abe 5e90 223e 62e7 b73d
000001c0: ee14 e9be 3c23 c33d 2d70 9bbc 98ac f23e
000001d0: c829 d83e fea8 523d 32d0 823e b262 f53d
000001e0: 81ef 483e 7b1d 3a3e f565 123e bb99 81bd
000001f0: 55df 4f3e 6eb3 c63e c721 dabd 2140 13bf
00000200: 9795 29bf bec5 69be e41d 733e c956 013f
00000210: 1544 7b3e 0f54 083f 66f5 9d3e f32d 143f
00000220: 7dd4 b23e d04d 5b3e 5584 473e e718 063e
00000230: 49e4 5bbb 65e2 213e 8a6e fcbc 665e 50be
00000240: 6b14 47bd d121 b9bd e2b4 793e 204c dc3d
00000250: fb1d 813e 42ba 3abe 8215 f43c bc98 b2be
00000260: 8120 0f3e 1eb6 32bd e3a9 3a3e 2661 fe3d
00000270: 8c6c 4b3d b76c 1ebe c6f0 84be 1603 543c
00000280: e81c a23d 8b51 49be 9fb1 36be f890 05bb
00000290: 08a3 b2bd 1f24 8dbe 6114 263e c5d4 253c
000002a0: de26 3fbd 4fe0 6c3c 9322 91be f619 963e
000002b0: 56bc 3e3e ccb0 2e3e 911b 893d 316c 343e
000002c0: eaa4 2f3e e8af 853e a0f4 263f 5c80 1f3f
000002d0: 2d9a d83e c9cb b63d c941 0abe fa0e d6be
000002e0: 1224 a3be fb12 32be 81cd 4e3e e533 6b3d
000002f0: d357 313e ce78 0fbe 8438 213e 5b45 9c3d
00000300: 8b38 ddbe 259f d3be df7e 0dbe f199 0cbe
00000310: ce3c 0ebe 23e2 37bd c375 153e 9d10 433e
00000320: 9603 e63e 14e9 dc3e dc30 313f 2f6f 003f
00000330: 0e77 9f3e 2ae4 873e 3268 783d 2397 873e
00000340: 3827 913e f87a cfbd 0eee e4bc 052d 8fbb
00000350: 183f 6b3e 98d1 2d3c 798a 65be b2ff 9a3d
00000360: ccfc 93bd 22e1 4d3d 57fa 1cbe d8c9 603d
00000370: 17ef efbb 5c46 8bbe dffa dbbe 60b6 04be
00000380: 2ae6 0c3e 7336 1ebc 7f85 88bc a02c ffbd
00000390: c577 14bb 8622 0f3e ddfd d4bd 7197 b0bd
000003a0: 2a1c ba3c ef34 6ebc d960 133e d059 e93e
000003b0: 93c1 983e 3b58 a9bd 5108 013e 9356 f9bd
000003c0: b2c9 afbd 4ba6 e0bd 60b3 863e 7898 513e
000003d0: 1c72 263e 6ef6 68bd 3e84 94be e980 8bbe
000003e0: 965a eabe 67bb b0be 4d4a 57be 8118 e9be
000003f0: 334c c3bd cd20 babe 0c1e 8fbe 8937 c7bc
0.0030923777 0.28026843 0.077789664 0.4183519 0.21403956 0.28451255 -0.027768083 0.25803885
0.1311111 0.26014176 -0.11144973 -0.2742725 -0.46134335 -0.3866592 0.021727698 0.49021536
0.3399418 0.16620205 0.028189482 -0.21741459 0.24598058 0.15286605 0.16034356 0.29964316
0.25508943 -0.003057099 0.23087496 0.19772719 -0.1824704 0.047886707 0.20599656 0.23995285
-0.22448274 -0.45707688 -0.43057352 -0.060397565 0.14572388 -0.219663 -0.25287548 0.09393644
0.12571816 0.023144148 -0.05388778 -0.32175907 -0.06443043 0.009117504 0.23836075 0.28252703
0.6336239 0.3012864 0.46091148 0.55002445 0.6639555 0.14956525 0.17953245 0.13493344
-0.062235076 -0.1175844 0.045505233 0.122607544 0.1401668 0.2756481 0.24672683 0.44843265
0.48275137 0.016868932 0.1122954 -0.33473662 -0.49529728 0.048414353 -0.2798246 -0.190224
-0.46473083 -0.44055468 -0.39561412 0.00058421266 -0.20014475 -0.17399552 -0.15386249 -0.3848954
-0.053004503 -0.22839099 -0.22406235 -0.011932992 0.041978113 0.05098011 0.23988692 -0.2150036
-0.10230722 -0.31362823 -0.2695055 -0.011201707 0.052508805 -0.121224515 -0.11540835 -0.21029174
0.29253653 0.32475013 0.08226681 0.20189479 0.16063185 0.28299963 0.49379787 0.10164591
-0.03205138 0.112685725 0.13280244 0.011747274 -0.086961515 -0.13512468 0.15875384 0.0897968
-0.4552378 0.09528205 -0.018974388 0.47397304 0.42219377 0.051430695 0.25549465 0.11981715
0.19622613 0.18175308 0.14296706 -0.0632815 0.20300038 0.3880877 -0.10650974 -0.5751973
-0.6624388 -0.22829339 0.23741871 0.5052305 0.2453769 0.53253263 0.30851287 0.5788261
0.3492774 0.21416402 0.19484074 0.13095437 -0.0033552817 0.15809019 -0.030814428 -0.2034851
-0.048603456 -0.09039653 0.24385408 0.10756707 0.25218186 -0.18235114 0.029795412 -0.34882152
0.13977243 -0.04363071 0.18228869 0.12420873 0.049664065 -0.15471159 -0.25964946 0.012940189
0.0791567 -0.19660012 -0.17841195 -0.0020380598 -0.08722502 -0.2756662 0.16218711 0.010121529
-0.046667926 0.014457776 -0.2834669 0.29316682 0.18626532 0.1705963 0.06694711 0.17619397
0.17152753 0.26110768 0.6521702 0.62305236 0.42305127 0.08925588 -0.13501658 -0.418083
-0.31863457 -0.17390053 0.20195581 0.057422537 0.17318659 -0.14010927 0.15744215 0.07630416
-0.432072 -0.41332355 -0.13817929 -0.13730599 -0.13890383 -0.044893395 0.14595704 0.19049306
0.4492461 0.43146574 0.6921518 0.5016965 0.3114552 0.26541263 0.060646243 0.26482496
0.28350234 -0.10130876 -0.027945545 -0.0043693804 0.22973287 0.010609053 -0.22416104 0.07568301
-0.072259516 0.05026353 -0.15329872 0.054879993 -0.007322203 -0.27202117 -0.42964837 -0.12960196
0.13759676 -0.009656536 -0.016665218 -0.124596834 -0.0022654396 0.13978013 -0.10399983 -0.08622635
0.022718508 -0.014538988 0.14392413 0.45576334 0.29835185 -0.08268782 0.12600829 -0.12174716
-0.08583392 -0.10969218 0.26308727 0.20468318 0.16254467 -0.05687564 -0.29007143 -0.27246788
-0.45772237 -0.34517977 -0.21024437 -0.45526507 -0.09536018 -0.3635315 -0.2795261 -0.024318473
