model_quant_tl.tflite (tflite, 23536 bytes, 14 tensors)

output/bias f2 [10]
-0.10376 0.1888 0.1254 -0.0803 -0.0607 0.12427 -0.1001 0.09955
-0.1309 -0.0465
00000000: a4ae 0b32 0330 24ad c5ab f42f 68ae 5f2e
00000010: 30b0 f4a9

arith.constant f2 [20, 20]
0.2244 0.2402 0.05487 0.0998 -0.2229 -0.421 0.2896 -0.3508
0.0627 0.4758 -0.5117 -0.0888 0.1154 -0.1906 -0.2496 0.1907
0.2443 -0.3096 -0.0609 0.03662 0.10864 0.102 0.1866 0.0995
-0.4626 0.0332 -0.2175 -0.1302 -0.2262 0.753 0.2272 0.07916
0.1958 -0.1825 0.141 0.562 0.1509 -0.07 -0.01593 0.1738
0.035 0.4976 -0.2522 -0.008385 -0.06335 -0.4275 0.377 -0.3384
0.3052 -0.0668 -0.402 -0.0396 -0.2324 0.2073 -0.1997 -0.1956
0.3457 -0.2717 0.1216 -0.361 -0.1622 0.3374 -0.1323 -0.0894
0.2515 -0.2883 0.5986 -0.001761 0.1488 -0.2686 -0.4907 -0.1232
-0.1372 0.1738 -0.468 0.1003 -0.07697 -0.2084 0.0331 -0.4185
0.10754 0.314 0.04117 0.2832 -0.2004 -0.3252 0.352 -0.332
0.356 1.042 -0.1716 0.1696 -0.8193 -0.1609 -0.2367 -0.2893
0.4402 -0.1791 0.4688 0.1024 -0.0413 0.2144 0.1979 -0.3723
0.1881 -0.2283 0.4321 -0.1025 0.0852 0.0806 -0.2415 0.1273
0.3757 0.549 -0.22 0.24 0.2886 -0.1802 0.3184 -0.6
0.1633 0.3152 0.1101 -0.2393 0.3142 -0.301 0.04437 -0.01295
-0.3235 -0.0708 -0.2708 -0.1166 0.764 0.3245 -0.12317 0.7295
-0.32 -0.2686 0.3247 -0.4983 0.2942 0.2512 -0.2356 -0.591
0.686 -0.1833 0.18 0.04 -0.3303 -0.0544 -0.4788 0.557
0.3792 1.141 -0.5586 -0.0774 -0.01353 -0.2896 0.3542 -0.561
-0.05496 -0.0532 -0.244 -0.1792 -0.3071 -0.243 0.0543 -0.3635
0.4922 0.2222 -0.2808 0.2336 0.3787 0.02931 -0.04507 0.539
0.2218 -0.1059 -0.0911 -0.2207 0.0802 0.7266 -0.3835 -0.66
0.393 -0.09174 -0.1779 -0.02264 0.07196 0.1876 -0.729 0.0175
-0.3462 0.526 -0.10583 0.3474 -0.1874 0.0617 -0.1355 0.2448
0.196 -0.11615 0.2313 0.1992 -0.2463 -0.0328 0.06836 -0.2202
-0.1674 0.1113 -0.164 0.4233 0.4626 -0.04358 -0.3066 0.447
0.01639 -0.0729 0.3303 -0.3105 0.527 0.2478 0.07605 0.2041
-0.02832 -0.2979 0.06235 0.003994 0.1108 -0.05362 -0.4194 0.0917
-0.1512 0.1373 -0.0903 0.1655 0.4216 -0.2808 0.144 -0.1777
-0.4907 0.5664 0.4038 0.1279 0.345 -0.3313 -0.0583 0.4004
0.1573 0.1971 -0.6787 0.2817 0.05234 0.287 -0.6587 0.3308
00000000: 2e33 b033 062b 632e 22b3 bcb6 a234 9db5
00000010: 032c 9d37 18b8 afad 632f 19b2 fdb3 1a32
00000020: d133 f4b4 ccab b028 f42e 872e f931 5e2e
00000030: 67b7 4028 f6b2 2bb0 3db3 063a 4533 112d
00000040: 4432 d7b1 8330 7f38 d430 7bac 14a4 9031
00000050: 7b28 f637 09b4 4ba0 0eac d7b6 0836 6ab5
00000060: e234 46ac 6fb6 12a9 70b3 a232 64b2 42b2
00000070: 8835 59b4 c82f c7b5 31b1 6635 3cb0 b9ad
00000080: 0634 9db4 ca38 3797 c330 4cb4 dab7 e3af
00000090: 64b0 9031 7db7 6b2e edac abb2 3d28 b2b6
000000a0: e22e 0635 4529 8834 6ab2 34b5 a235 50b5
000000b0: b235 2b3c 7eb1 6d31 8eba 26b1 93b3 a1b4
000000c0: 0b37 bbb1 8037 8e2e 49a9 dc32 5532 f5b5
000000d0: 0532 4eb3 ea36 8fae 742d 292d bab3 1330
000000e0: 0336 6438 0ab3 ae33 9e34 c4b1 1835 cdb8
000000f0: 3a31 0b35 0c2f a8b3 0735 d1b4 ae29 a1a2
00000100: 2db5 88ac 55b4 76af 1d3a 3135 e2af d639
00000110: 1fb5 4cb4 3235 f9b7 b534 0534 8ab3 bab8
00000120: 7d39 deb1 c331 1f29 49b5 f7aa a9b7 7538
00000130: 1136 903c 78b8 f4ac eda2 a2b4 ab35 7db8
00000140: 09ab cfaa cfb3 bcb1 eab4 c7b3 f32a d1b5
00000150: e037 1c33 7eb4 7a33 0f36 8127 c5a9 5038
00000160: 1933 c7ae d5ad 10b3 222d d039 23b6 48b9
00000170: 4a36 dfad b1b1 cca5 9b2c 0132 d5b9 7b24
00000180: 8ab5 3538 c6ae 8f35 ffb1 e62b 56b0 d533
00000190: 4632 6faf 6733 6032 e2b3 33a8 602c 0cb3
000001a0: 5bb1 202f 3fb1 c636 6737 94a9 e8b4 2737
000001b0: 3224 aaac 4935 f8b4 3738 ee33 de2c 8832
000001c0: 40a7 c4b4 fb2b 171c 172f ddaa b6b6 de2d
000001d0: d7b0 6530 c7ad 4c31 bf36 7eb4 9c30 b0b1
000001e0: dab7 8838 7636 1830 8535 4db5 76ab 6836
000001f0: 0931 4f32 6eb9 8234 b32a 9834 45b9 4b35

arith.constant1 f2 [20, 20]
-0.1182 -0.10364 0.0875 -0.0488 -0.1699 0.04453 -0.0889 -0.00226
0.05847 -0.0683 0.2554 -0.208 0.1736 0.002747 0.3784 -0.3088
-0.05618 0.58 -0.1725 0.0983 0.1353 0.04144 -0.1995 -0.03693
0.2194 0.09595 -0.0909 0.05905 -0.2947 -0.07983 0.0351 0.0533
-0.0971 0.001472 -0.1984 -0.0358 -0.1538 0.0188 0.02206 0.01685
-0.3533 -0.3247 0.00859 0.1539 0.1092 -0.0342 0.2598 0.2925
-0.2676 -0.2384 -0.02875 0.04422 0.2308 -0.0969 -0.1632 -0.06616
-0.10693 0.1753 -0.02057 -0.01671 0.06354 -0.0938 -0.0612 -0.0726
0.3208 0.01776 0.2083 0.2115 0.1633 0.02086 -0.4792 -0.02473
-0.2654 -0.1248 -0.1655 0.02463 -0.05725 0.12463 -0.00606 -0.10187
0.08875 0.1395 -0.1338 -0.1903 0.2155 -0.1111 0.11694 0.1227
0.02844 -0.292 0.0758 0.0946 0.0543 -0.012924 -0.3098 0.1731
-0.0158 -0.1263 -0.01221 0.009544 -0.5063 -0.0804 -0.1083 -0.01884
-0.2032 -0.0935 -0.2297 0.1688 -0.3696 0.0693 -0.09045 0.0877
0.2886 0.04742 0.1896 0.1296 -0.1432 -0.1443 -0.1678 0.02203
-0.0613 0.1603 -0.02063 0.1813 0.02692 -0.010666 0.1181 -0.4844
0.6704 0.3333 0.04004 0.007397 -0.2029 0.0091 -0.11615 -0.01554
-0.0971 0.1604 0.03102 0.2742 -0.269 0.1323 -0.09546 0.07544
-0.009834 -0.1035 -0.0965 0.0982 0.2423 -0.0781 0.04007 0.2114
-0.10657 0.1121 -0.2656 0.2141 0.01695 -0.1128 0.09576 -0.2166
-0.1367 0.4104 -0.0771 -0.1619 -0.00831 0.3486 0.05588 -0.1973
0.0857 0.146 -0.2434 0.07446 -0.1282 -0.07184 0.0887 0.08234
-0.1047 0.1445 -0.06155 0.4634 -0.01933 -0.2876 -0.09204 0.2085
-0.442 0.0369 -0.0809 0.2532 -0.3623 0.253 -0.1013 -0.098
0.2551 0.003313 0.1254 0.2129 -0.1927 -0.01851 -0.072 -0.006126
0.04044 -0.139 0.06323 0.2184 -0.3284 -0.02489 -0.07635 0.0777
-0.007652 0.1559 0.0202 0.1265 0.1628 0.04926 0.01984 0.0143
-0.1328 0.08325 -0.2354 -0.1401 0.1715 -0.2306 0.02452 0.1366
0.0719 -0.1343 0.06207 -0.03204 0.05225 0.204 -0.01682 0.0266
0.2489 -0.003225 -0.05045 0.1412 0.2339 -0.1052 0.1342 -0.2157
0.1201 -0.2062 -0.1265 -0.2396 0.06714 -0.0364 0.1504 -0.04382
0.046 -0.2551 0.213 -0.2185 -0.1797 0.2627 0.04242 0.02017
00000000: 91af a2ae 9a2d 3faa 70b1 b329 b1ad a198
00000010: 7c2b 5fac 1634 a8b2 8e31 a019 0e36 f1b4
00000020: 31ab a438 85b1 4b2e 5430 4e29 62b2 baa8
00000030: 0533 242e d1ad 8f2b b7b4 1cad 7e28 d32a
00000040: 37ae 0816 59b2 95a8 ecb0 d024 a625 5024
00000050: a7b5 32b5 6620 ed30 fd2e 61a8 2834 ae34
00000060: 48b4 a1b3 5ca7 a929 6333 34ae 39b1 3cac
00000070: d8ae 9c31 44a5 47a4 112c 01ae d5ab a5ac
00000080: 2235 8c24 aa32 c532 3a31 5725 abb7 55a6
00000090: 3fb4 fdaf 4cb1 4e26 54ab fa2f 359e 85ae
000000a0: ae2d 7730 48b0 17b2 e532 1caf 7c2f da2f
000000b0: 4827 acb4 da2c 0e2e f32a 9ea2 f5b4 8a31
000000c0: 0ba4 0bb0 40a2 e320 0db8 25ad eeae d3a4
000000d0: 81b2 fcad 5ab3 6731 eab5 6f2c caad 9d2d
000000e0: 9e34 122a 1132 2630 95b0 9eb0 5fb1 a425
000000f0: d9ab 2131 48a5 cd31 e426 76a1 8f2f c0b7
00000100: 5d39 5535 2029 931f 7eb2 a920 6faf f5a3
00000110: 37ae 2231 f127 6334 4eb4 3c30 1cae d42c
00000120: 09a1 a0ae 2dae 492e c133 00ad 2129 c432
00000130: d2ae 2d2f 40b4 da32 5724 38af 212e eeb2
00000140: 60b0 9136 efac 2eb1 41a0 9435 272b 50b2
00000150: 7c2d ac30 cab3 c42c 1ab0 99ac ad2d 452d
00000160: b3ae a030 e1ab 6a37 f3a4 9ab4 e4ad ac32
00000170: 12b7 b928 2dad 0d34 ccb5 0c34 7cae 46ae
00000180: 1534 c91a 0330 d032 2bb2 bda4 9cac 469e
00000190: 2d29 73b0 0c2c fd32 41b5 5fa6 e3ac f92c
000001a0: d69f fd30 2c25 0c30 3631 4e2a 1425 5223
000001b0: 40b0 542d 88b3 7cb0 7d31 61b3 4726 5f30
000001c0: 9a2c 4cb0 f22b 1aa8 b02a 8732 4ea4 cf26
000001d0: f733 9b9a 75aa 8530 7c33 bcae 4b30 e7b2
000001e0: b02f 99b2 0cb0 abb3 4c2c a9a8 d030 9ca9
000001f0: e329 15b4 d132 feb2 c0b1 3434 6e29 2a25

arith.constant2 f2 [20, 20]
0.03317 -0.1937 0.0958 0.05045 -0.0622 0.1274 0.04172 -0.3555
0.269 0.01064 -0.0971 -0.2378 0.175 -0.03714 0.04932 -0.2837
-0.161 0.416 -0.259 0.2576 -0.00885 -0.1616 -0.126 0.0793
0.00189 0.0419 0.1265 0.1312 -0.0768 0.1887 0.10187 0.2134
-0.0578 0.09204 -0.1306 -0.007935 0.0808 0.1492 -0.08575 -0.142
0.253 0.2412 -0.2131 0.2908 0.11273 -0.1401 0.1476 -0.2255
0.01918 0.1054 -0.0568 0.1279 0.4756 -0.1522 -0.1024 0.05875
0.3584 -0.1346 -0.1484 -0.2563 -0.0442 -0.10034 -0.1521 -0.1833
0.2094 0.02748 0.4731 -0.2527 -0.0627 0.01929 0.2708 0.081
-0.05887 0.05966 0.0709 -0.0706 -0.10565 0.01576 -0.3533 0.09064
-0.1355 -0.1495 -0.0445 0.1503 0.0344 0.1487 0.0826 -0.1499
-0.01199 -0.1234 0.1531 -0.2656 -0.256 0.0967 0.03345 -0.1935
-0.1979 -0.0537 -0.04373 0.3318 0.0721 0.05698 0.2603 -0.1115
0.10114 0.1677 0.2375 -0.403 -0.1642 -0.01863 -0.3088 -0.10474
0.07056 -0.1622 -0.05063 0.4578 0.2588 0.5723 0.1727 -0.1846
-0.4421 0.02165 0.7217 -0.0695 0.03995 0.0488 -0.1287 0.4976
-0.3066 0.0922 0.03387 0.0949 -0.1564 -0.36 -0.06464 0.0462
0.1687 0.4673 0.3977 -0.08594 -0.07556 -0.376 0.0965 0.1868
0.0762 -0.1755 -0.03445 0.0615 -0.07776 -0.3496 0.1494 0.27
0.0235 -0.04285 0.1385 -0.4177 -0.411 0.2115 0.166 -0.1199
0.2522 -0.297 -0.05652 0.194 -0.3076 0.03543 -0.07465 -0.1307
0.1149 0.1277 0.0761 -0.04083 -0.04025 -0.3057 0.3213 -0.0587
-0.173 0.2231 -0.1194 -0.2302 0.2617 -0.0689 0.2693 0.3389
-0.374 0.06726 0.01843 0.3176 -0.1307 -0.321 0.1582 0.0918
0.03433 -0.4695 0.00755 -0.6206 0.002365 0.2175 -0.02158 -0.0551
-0.486 -0.03525 0.06555 -0.2152 -0.09814 0.0891 0.021 0.2769
0.05725 0.1631 -0.1299 0.4475 0.2761 0.0751 -0.1389 0.1155
0.0765 0.1154 0.1638 -0.108 0.2893 0.2092 -0.0724 -0.1143
0.3186 -0.276 -0.1353 -0.08954 0.0925 -0.05664 -0.10376 -0.1697
0.06192 -0.1688 -0.00851 0.1255 0.1836 0.06097 -0.0391 0.174
0.1445 -0.165 -0.1354 0.06384 0.2478 0.1454 0.399 -0.3093
-0.06494 -0.0204 0.2146 0.2023 0.08734 -0.1338 -0.0902 -0.05225
00000000: 3f28 33b2 222e 752a f6ab 1430 5729 b0b5
00000010: 4e34 7321 37ae 9cb3 9a31 c1a8 502a 8ab4
00000020: 27b1 a836 25b4 1f34 88a0 2cb1 08b0 132d
00000030: be17 5d29 0c30 3330 eaac 0a32 852e d432
00000040: 66ab e42d 2eb0 10a0 2c2d c630 7dad 8bb0
00000050: 0c34 b833 d2b2 a734 372f 7cb0 b930 37b3
00000060: e924 bf2e 45ab 1830 9c37 dfb0 8eae 852b
00000070: bc35 4fb0 c0b0 1ab4 a8a9 6cae deb0 deb1
00000080: b332 0927 9237 0bb4 03ac f024 5534 2f2d
00000090: 89ab a32b 8a2c 85ac c3ae 0924 a7b5 cd2d
000000a0: 56b0 c9b0 b2a9 cf30 6728 c230 492d ccb0
000000b0: 24a2 e6af e630 40b4 19b4 302e 4828 31b2
000000c0: 55b2 e0aa 99a9 4f35 9d2c 4b2b 2a34 23af
000000d0: 792e 5e31 9a33 73b6 41b1 c5a4 f1b4 b4ae
000000e0: 842c 31b1 7baa 5337 2434 9438 8731 e8b1
000000f0: 13b7 8b25 c639 73ac 1d29 3f2a 1eb0 f637
00000100: e8b4 e72d 5628 132e 01b1 c3b5 23ac ea29
00000110: 6631 7a37 5d36 80ad d6ac 04b6 2d2e fa31
00000120: e02c 9eb1 69a8 df2b faac 98b5 c830 5234
00000130: 0426 7ca9 6f30 afb6 93b6 c532 5031 acaf
00000140: 0934 c1b4 3cab 3532 ecb4 8928 c7ac 2fb0
00000150: 5b2f 1630 df2c 3aa9 27a9 e4b4 2435 83ab
00000160: 89b1 2433 a4af 5eb3 3034 69ac 4f34 6c35
00000170: fcb5 4e2c b824 1535 2fb0 23b5 1031 e02d
00000180: 6528 83b7 bb1f f7b8 d818 f632 86a5 0eab
00000190: c7b7 83a8 322c e3b2 48ae b42d 6025 6e34
000001a0: 542b 3831 28b0 2937 6b34 ce2c 72b0 642f
000001b0: e52c 632f 3e31 e9ae a134 b232 a2ac 51af
000001c0: 1935 6ab4 54b0 bbad ec2d 40ab a4ae 6eb1
000001d0: ed2b 67b1 5ba0 0430 e031 ce2b 01a9 9131
000001e0: a030 48b1 55b0 162c ee33 a730 6236 f3b4
000001f0: 28ac 39a5 de32 7932 972d 48b0 c6ad b0aa

arith.constant3 f2 [20, 20]
0.341 0.4592 0.7534 0.004303 -0.0648 -0.2357 -0.1787 -0.03537
0.1371 0.41 -0.1172 0.1504 0.05838 -0.36 -0.259 0.5303
-0.06274 0.275 -0.0616 0.2852 0.08405 -0.02327 -0.02545 -0.2144
-0.1715 0.1173 0.04688 -0.2152 -0.00396 0.0733 0.3362 0.2079
-0.10046 -0.054 0.01547 0.00858 0.0798 0.0973 0.1803 0.2905
0.08954 -0.3093 -0.449 0.2578 -0.1735 0.3672 -0.1703 0.388
0.0965 -0.6074 -0.0465 -0.57 -0.09 0.0913 0.2434 -0.03235
-0.06213 -0.4282 -0.474 -0.0364 -0.266 0.2443 -0.3545 -0.0366
0.1619 0.1481 0.1412 0.1604 0.2328 -0.1407 0.01733 -0.273
-0.1328 0.4204 -0.2141 0.1177 -0.2019 -0.1721 -0.1274 0.00807
0.2805 -0.219 0.253 0.2117 -0.5127 -0.2944 -0.03455 0.001557
0.2678 0.161 -0.2827 0.1499 -0.802 -0.2449 -0.268 -0.3557
0.02312 -0.2053 -0.03726 -0.0981 -0.1262 -0.3103 0.2361 -0.133
-0.26 0.459 0.3645 -0.3757 0.1268 0.3533 0.0355 -0.2042
0.3794 0.0491 0.1766 0.3938 -0.0136 -0.1283 0.0905 -0.268
-0.2754 -0.08124 -0.6753 -0.0179 0.2913 -0.3025 -0.10657 -0.02516
-0.657 -0.242 -0.1781 0.0804 0.65 0.2905 -0.263 0.2437
-0.3982 -0.8467 -0.1272 -0.6143 0.2172 0.4387 -0.3545 -0.1683
-0.4302 -0.1902 -0.2495 -0.4268 0.2869 0.2023 -0.1453 0.4229
-0.2942 0.012695 -0.1978 -0.0496 -0.1952 -0.298 0.1119 0.2194
0.0443 0.0948 -0.2961 -0.7627 0.1791 -0.2429 -0.1198 -0.3308
0.1947 0.2299 -0.1394 -0.0644 0.419 0.1029 -0.2551 -0.1696
0.08704 0.1986 0.02539 -0.09564 -0.6 0.279 0.2866 -0.09924
-0.1385 0.001241 0.1343 0.3635 0.2761 0.3052 -0.04526 -0.01881
0.2825 -0.2117 -0.1677 0.4644 -0.05096 0.4595 -0.483 0.2009
-0.0939 -0.2177 -0.06256 0.3313 -0.3801 0.02899 0.3984 -0.2717
-0.1925 0.0432 0.2825 0.01744 -0.3499 0.044 -0.10535 0.1475
0.2172 -0.416 0.02231 -0.2136 0.4282 0.2125 -0.03427 -0.10034
-0.4072 -0.2462 0.3293 -0.2289 0.3281 -0.2046 -0.5205 -0.4624
-0.311 -0.3489 -0.05188 -0.002838 0.10657 -0.512 -0.354 0.2568
-0.1186 0.2098 -0.2372 -0.2106 1.148 -0.2607 -0.07324 0.2954
0.09314 0.01703 -0.3079 0.2185 0.1632 0.12427 -0.1003 0.2659
00000000: 7535 5937 073a 681c 26ac 8bb3 b8b1 87a8
00000010: 6330 8f36 80af d030 792b c3b5 25b4 3e38
00000020: 04ac 6634 e3ab 9034 612d f5a5 84a6 dcb2
00000030: 7db1 822f 002a e3b2 0e9c b12c 6135 a732
00000040: 6eae e9aa ec23 6520 1b2d 3a2e c531 a634
00000050: bb2d f3b4 2fb7 2034 8db1 e035 73b1 3536
00000060: 2d2e dcb8 f4a9 8fb8 c3ad d82d ca33 24a8
00000070: f4ab dab6 96b7 a9a8 42b4 d133 acb5 afa8
00000080: 2e31 bd30 8530 2231 7333 81b0 7024 5eb4
00000090: 40b0 ba36 dab2 882f 76b2 82b1 14b0 2220
000000a0: 7d34 02b3 0c34 c632 1ab8 b6b4 6ca8 6116
000000b0: 4934 2731 86b4 cc30 6aba d6b3 4ab4 b1b5
000000c0: eb25 92b2 c5a8 47ae 0ab0 f7b4 8e33 42b0
000000d0: 29b4 5837 d535 03b6 0f30 a735 8b28 89b2
000000e0: 1236 492a a731 4d36 f7a2 1bb0 cb2d 4ab4
000000f0: 68b4 33ad 67b9 95a4 a934 d7b4 d2ae 71a6
00000100: 42b9 beb3 b3b1 252d 3339 a634 35b4 cc33
00000110: 5fb6 c6ba 12b0 eab8 f332 0537 acb5 63b1
00000120: e2b6 16b2 fcb3 d4b6 9734 7932 a6b0 c436
00000130: b5b4 8022 54b2 59aa 3fb2 c5b4 292f 0533
00000140: ac29 112e bdb4 1aba bb31 c6b3 abaf 4bb5
00000150: 3b32 5b33 76b0 1fac b436 962e 15b4 6db1
00000160: 922d 5b32 8026 1fae cdb8 7734 9634 5aae
00000170: 6fb0 1515 4c30 d135 6b34 e234 cba9 d1a4
00000180: 8534 c6b2 5eb1 6e37 86aa 5a37 bab7 6e32
00000190: 02ae f7b2 01ac 4d35 15b6 6c27 6036 59b4
000001a0: 29b2 8829 8534 7724 99b5 a229 beae b830
000001b0: f332 a8b6 b625 d6b2 da36 cd32 63a8 6cae
000001c0: 84b6 e1b3 4535 53b3 4035 8cb2 2ab8 66b7
000001d0: fab4 95b5 a4aa d099 d22e 19b8 aab5 1c34
000001e0: 97af b732 97b3 bdb2 983c 2cb4 b0ac ba34
000001f0: f62d 5c24 edb4 fe32 3931 f42f 6bae 4134

arith.constant4 f2 [20]
0.4578 0.1344 0.572 0.516 0.3826 0.5005 0.219 0.261
0.1902 0.4995 0.2573 0.5312 0.6797 0.563 0.3457 0.5576
0.4578 0.469 0.3494 0.1826
00000000: 5337 4d30 9338 2138 1f36 0138 0233 2d34
00000010: 1632 fe37 1e34 4038 7039 8138 8835 7638
00000020: 5337 8137 9735 d831

arith.constant5 f2 [20]
-0.0916 -9.91e-05 -0.00846 0.1273 0.02777 0.07544 0.00544 0.0638
0.01868 -0.1299 -0.02245 0.01474 -0.079 -0.08563 -0.02094 -0.09247
-0.1448 -0.04443 -0.02003 -0.006985
00000000: ddad 7f86 55a0 1330 1c27 d42c 921d 152c
00000010: c824 28b0 bfa5 8c23 0ead 7bad 5ca5 ebad
00000020: a2b0 b0a9 21a5 279f

arith.constant6 f2 [20]
0.979 1.074 1.152 1.063 1.294 0.9927 0.9863 1.072
0.992 1.077 1.103 1.2 1.074 1.059 1.082 1.053
0.9224 1.225 1.104 1.11
00000000: d53b 4c3c 9c3c 413c 2d3d f13b e43b 4a3c
00000010: f03b 4f3c 693c cd3c 4c3c 3c3c 543c 363c
00000020: 613b e63c 6a3c 713c

arith.constant7 f2 [20]
0.4216 0.3018 -0.03546 0.2338 0.4338 0.08795 0.01545 0.186
0.3643 0.4575 0.01058 0.3186 0.4404 0.286 0.005478 0.1882
0.1409 0.0768 -0.006527 0.1208
00000000: bf36 d434 8aa8 7b33 f136 a12d e923 f431
00000010: d435 5237 6b21 1935 0c37 9334 9c1d 0632
00000020: 8230 ea2c af9e bb2f

arith.constant8 f2 [20, 28]
0.1692 0.2396 0.0354 -0.00527 0.2913 0.503 0.0321 0.3423
0.2593 0.2396 0.1848 0.1288 0.1595 0.5054 0.7515 0.6924
0.5156 -0.1641 -0.1417 0.0906 0.4143 0.4573 0.4424 0.5454
0.3777 0.2133 0.584 -0.02371 -0.03568 0.07263 0.4973 0.407
-0.04874 -0.1447 -0.304 -0.04663 0.1061 -0.2766 0.02661 0.01245
0.5303 0.2605 0.0684 -0.4343 -0.4368 -0.000904 -0.0914 0.04364
-0.008865 0.2391 -0.2876 0.0645 -0.06824 -0.08215 0.1833 0.2351
-0.00995 0.323 0.4272 0.3525 0.1863 0.1503 0.0986 -0.04706
0.04764 0.612 0.7217 0.5303 0.5293 0.441 0.11505 -0.0605
-0.01203 0.145 0.2573 0.61 0.1198 0.12213 0.448 0.1638
0.1863 -0.1266 0.00985 0.391 0.3542 0.02728 0.09204 -0.2283
-0.451 -0.3425 -0.0886 0.0749 0.288 0.1996 0.6646 0.469
0.873 0.739 0.1667 -0.0267 -0.0952 -0.02444 -0.1565 0.1403
0.1821 0.2351 0.3364 0.00849 -0.092 0.1663 0.3867 -0.0345
-0.0631 0.0995 0.2927 0.2476 0.4402 0.0642 0.0289 0.2883
0.5195 0.1708 0.10046 0.2478 0.3074 0.3315 0.07 -0.605
-0.521 -0.4978 -0.0858 0.03117 0.03195 -0.10297 0.2566 -0.02122
-0.535 -0.08954 0.2122 0.1965 -0.1709 0.25 -0.1647 2.533e-05
0.273 0.06 0.1294 0.09064 0.05286 -0.0458 0.1289 -0.02797
0.1549 0.3047 0.7173 0.5312 0.01581 0.1028 0.3467 0.1842
0.1788 -0.00954 0.06525 0.549 0.5225 0.261 -0.0491 -0.2211
0.2273 0.05286 -0.0782 0.1593 0.3796 0.2644 -0.318 0.1423
0.1301 0.1588 0.568 0.556 0.1907 0.2144 0.255 -0.07495
0.1708 0.2455 0.1089 0.05316 -0.1595 -0.266 -0.05856 -0.3872
-0.3188 -0.201 0.04657 0.0877 -0.11707 0.0236 -0.0469 -0.1361
-0.1561 -0.2695 -0.04025 0.0881 0.1819 0.05237 0.1239 -0.10516
0.378 0.4124 0.6885 0.643 0.512 0.6685 0.9053 0.7153
0.512 0.2257 0.5234 0.0639 -0.1626 -0.3547 -0.766 -0.4773
-0.0935 -0.213 0.02188 -0.3547 -0.5073 -0.3704 -0.0893 -0.3704
-0.0989 -0.2418 0.2184 0.5767 1.017 0.89 0.7017 0.08563
0.03403 0.12427 0.2556 -0.2117 -0.1405 -0.4155 -0.542 -0.5513
-0.467 -0.521 -0.4958 -0.10614 -0.03108 -0.2186 -0.0672 -0.1467
00000000: 6a31 ab33 8828 659d a934 0638 1c28 7a35
00000010: 2634 ab33 ea31 1f30 1b31 0b38 033a 8a39
00000020: 2038 40b1 89b0 cc2d a136 5137 1437 5d38
00000030: 0b36 d332 ac38 12a6 91a8 a62c f537 8336
00000040: 3daa a1b0 ddb4 f8a9 ca2e 6db4 d026 6022
00000050: 3e38 2b34 612c f3b6 fdb6 6893 d9ad 9629
00000060: 8aa0 a733 9ab4 212c 5eac 42ad de31 8633
00000070: 18a1 2b35 d636 a435 f631 cf30 4f2e 06aa
00000080: 192a e538 c639 3e38 3c38 0e37 5d2f beab
00000090: 29a2 a430 1e34 e138 ab2f d12f 2b37 3e31
000000a0: f631 0db0 0b21 4236 ab35 fc26 e42d 4eb3
000000b0: 37b7 7bb5 acad cb2c 9c34 6332 5139 8137
000000c0: fc3a e939 5631 d6a6 18ae 42a6 02b1 7d30
000000d0: d431 8633 6235 5920 e3ad 5231 3036 6aa8
000000e0: 0aac 5e2e af34 ec33 0b37 1c2c 6627 9d34
000000f0: 2838 7731 6e2e ee33 eb34 4e35 7b2c d7b8
00000100: 2bb8 f7b7 7ead fb27 1728 97ae 1b34 6fa5
00000110: 48b8 bbad ca32 4a32 78b1 0034 45b1 a901
00000120: 5e34 ae2b 2430 cd2d c42a dda9 2030 29a7
00000130: f530 e034 bd39 4038 0c24 942e 8c35 e531
00000140: b931 e2a0 2d2c 6438 2e38 2d34 49aa 13b3
00000150: 4633 c42a 01ad 1931 1336 3b34 17b5 8e30
00000160: 2a30 1531 8b38 7338 1a32 dc32 1434 ccac
00000170: 7731 db33 f82e ce2a 1bb1 42b4 7fab 32b6
00000180: 1ab5 6fb2 f629 9d2d 7eaf 0b26 01aa 5bb0
00000190: ffb0 50b4 27a9 a32d d231 b42a ee2f bbae
000001a0: 0c36 9936 8239 2539 1938 5939 3e3b b939
000001b0: 1938 3933 3038 172c 34b1 adb5 21ba a3b7
000001c0: fcad d1b2 9a25 adb5 0fb8 edb5 b7ad edb5
000001d0: 54ae bdb3 fd32 9d38 113c 1f3b 9d39 7b2d
000001e0: 5b28 f42f 1734 c6b2 7fb0 a6b6 56b8 69b8
000001f0: 79b7 2bb8 efb7 cbae f5a7 ffb2 4dac b2b0

arith.constant9 f2 [20, 28]
-0.09485 0.216 0.0464 0.052 0.1617 -0.04163 0.1525 0.3086
0.1985 0.3367 0.2693 0.2878 0.1395 -0.0739 -0.1646 0.01953
0.127 0.207 0.1808 0.02028 0.04034 0.1495 -0.0391 -0.01695
-0.122 0.1285 -0.09296 0.254 0.1356 0.03287 0.0709 -0.06097
-0.2101 -0.1769 -0.06146 -0.1757 0.26 0.01279 0.05966 0.152
0.2861 -0.0902 -0.128 -0.2032 0.1926 0.4114 0.5405 0.632
0.505 0.361 0.3806 0.563 0.412 -0.08167 -0.01065 0.05783
-0.05054 0.1276 -0.2014 0.142 0.03812 -0.1328 0.1035 -0.03378
0.135 -0.12146 0.06573 0.1823 0.3843 0.252 -0.00542 0.09937
-0.1097 0.05634 -0.07776 -0.1869 -0.1937 -0.335 -0.3213 -0.2754
-0.01692 -0.128 0.17 0.142 0.0912 -0.0058 0.06866 -0.03044
-0.05054 0.2366 0.1855 0.1487 0.0637 0.1995 -0.12396 0.09467
-0.0441 -0.05475 -0.0723 -0.1283 -0.2417 -0.3271 -0.4922 -0.599
-0.602 -0.5884 -0.603 -0.7144 -0.4824 -0.301 0.08685 0.05814
0.0801 0.0948 0.344 0.646 0.1481 -0.03238 0.1349 -0.010826
-0.0948 -0.3623 -0.166 -0.06714 -0.0513 -0.2267 -0.1316 0.006668
0.4395 0.4993 0.1144 0.2864 0.05344 0.1204 0.1746 0.11456
-0.0813 -0.2472 -0.07526 0.006374 -0.007736 0.0841 0.0652 0.10895
-0.05167 -0.2191 0.01411 -0.03857 0.02313 0.1068 -0.1902 -0.4502
-0.3083 -0.1329 0.05945 0.03293 -0.1151 -0.3015 -0.11456 -0.0814
0.2024 0.2861 0.2487 0.416 0.5776 0.0278 -0.04196 -0.0861
0.06024 -0.2456 -0.1461 0.1974 0.3262 0.4902 0.2583 0.441
0.3545 0.336 0.148 -0.01581 0.02744 -0.3293 -0.1177 -0.0966
0.2076 -0.11383 -0.0324 -0.01425 -0.2252 -0.10565 0.0955 -0.1953
0.2583 0.2317 0.0778 -0.02155 -0.2527 0.128 -0.02931 -0.174
-0.1348 -0.5454 -0.3198 -0.5684 -0.5376 -0.583 -0.548 -0.6255
-0.3801 -0.2107 -0.1186 0.06915 0.215 -0.06058 0.1879 -0.01903
0.05557 0.1169 0.014656 0.006557 -0.05084 0.1345 0.393 0.10394
0.08044 -0.1372 -0.10547 -0.0513 -0.5127 -0.4211 -0.1343 -0.2496
-0.10583 0.3171 0.2993 0.3713 0.0937 -0.1415 -0.291 0.1344
-0.11945 -0.02406 -0.10596 -0.1168 0.03708 -0.1647 0.06757 -0.00978
-0.02654 -0.04062 -0.05847 -0.3105 -0.0187 0.2256 -0.1826 -0.072
00000000: 12ae e932 f029 a82a 2d31 54a9 e130 f034
00000010: 5a32 6335 4f34 9b34 7730 bbac 44b1 0025
00000020: 1030 a032 c931 3125 2a29 c930 01a9 57a4
00000030: cfaf 1d30 f3ad 1034 5730 3528 8a2c ceab
00000040: b9b2 a9b1 deab 9fb1 2934 8c22 a32b dd30
00000050: 9434 c6ad 19b0 81b2 2a32 9536 5338 0e39
00000060: 0a38 c735 1736 8138 9836 3aad 74a1 672b
00000070: 78aa 1530 72b2 8b30 e128 40b0 a02e 53a8
00000080: 5230 c6af 352c d531 2636 0834 8d9d 5c2e
00000090: 05af 362b faac fbb1 33b2 5cb5 24b5 68b4
000000a0: 55a4 19b0 7131 8b30 d62d f09d 652c cba7
000000b0: 78aa 9233 f031 c230 142c 6232 efaf 0f2e
000000c0: a5a9 02ab a1ac 1bb0 bcb3 3cb5 e0b7 cbb8
000000d0: d1b8 b5b8 d3b8 b7b9 b8b7 d1b4 8f2d 712b
000000e0: 202d 112e 8135 2b39 bd30 25a8 5130 8ba1
000000f0: 11ae ccb5 50b1 4cac 91aa 41b3 36b0 d41e
00000100: 0837 fd37 522f 9534 d72a b52f 9631 552f
00000110: 34ad e9b3 d1ac 871e ec9f 622d 2c2c f92e
00000120: 9daa 03b3 3923 f0a8 ec25 d62e 16b2 34b7
00000130: efb4 41b0 9c2b 3728 5eaf d3b4 55af 36ad
00000140: 7a32 9434 f533 a836 9f38 1e27 5fa9 83ad
00000150: b62b dcb3 adb0 5132 3835 d837 2234 0e37
00000160: ac35 6035 bc30 0ca4 0627 45b5 88af 2fae
00000170: a532 49af 26a8 4ca3 35b3 c3ae 1d2e 40b2
00000180: 2234 6a33 fb2c 84a5 0bb4 1930 81a7 91b1
00000190: 50b0 5db8 1eb5 8cb8 4db8 aab8 62b8 01b9
000001a0: 15b6 beb2 97af 6d2c e132 c1ab 0332 dfa4
000001b0: 1d2b 7b2f 8123 b71e 82aa 4e30 4a36 a72e
000001c0: 262d 64b0 c0ae 91aa 1ab8 bdb6 4cb0 fdb3
000001d0: c6ae 1335 ca34 f135 ff2d 87b0 a8b4 4d30
000001e0: a5af 29a6 c8ae 7aaf bf28 45b1 532c 02a1
000001f0: cba6 33a9 7cab f8b4 caa4 3833 d8b1 9cac

arith.constant10 f2 [20, 28]
0.003092 0.2803 0.0778 0.4185 0.214 0.2844 -0.02777 0.258
0.1311 0.2603 -0.11145 -0.2742 -0.4614 -0.3867 0.02173 0.4902
0.3398 0.1663 0.02818 -0.2174 0.246 0.1528 0.1604 0.2996
0.2551 -0.003057 0.2308 0.1978 -0.1825 0.04788 0.206 0.24
-0.2245 -0.457 -0.4307 -0.0604 0.1458 -0.2196 -0.253 0.09393
0.1257 0.02315 -0.0539 -0.3218 -0.06445 0.00912 0.2384 0.2825
0.634 0.3013 0.461 0.55 0.664 0.1495 0.1796 0.1349
-0.06223 -0.1176 0.0455 0.1226 0.1401 0.2756 0.2467 0.4485
0.4827 0.01688 0.1123 -0.3347 -0.4954 0.0484 -0.2798 -0.1902
-0.4648 -0.4407 -0.3955 0.000584 -0.2002 -0.174 -0.1538 -0.385
-0.053 -0.2284 -0.2241 -0.01193 0.042 0.051 0.2399 -0.215
-0.1023 -0.3137 -0.2695 -0.0112 0.05252 -0.1212 -0.1154 -0.2103
0.2925 0.3247 0.0823 0.2019 0.1606 0.283 0.494 0.1016
-0.03204 0.1127 0.1328 0.01175 -0.087 -0.1351 0.1588 0.0898
-0.4553 0.0953 -0.01898 0.4739 0.422 0.05142 0.2556 0.1198
0.1962 0.1818 0.143 -0.0633 0.203 0.3882 -0.1065 -0.575
-0.6626 -0.2283 0.2374 0.5054 0.2454 0.5327 0.3086 0.5786
0.3494 0.2141 0.1948 0.131 -0.003355 0.1581 -0.0308 -0.2035
-0.0486 -0.0904 0.2439 0.10754 0.2522 -0.1824 0.0298 -0.3489
0.1398 -0.04364 0.1823 0.1242 0.04965 -0.1547 -0.2598 0.01294
0.07916 -0.1967 -0.1785 -0.002039 -0.0872 -0.2756 0.1622 0.010124
-0.04666 0.01446 -0.2834 0.2932 0.1863 0.1707 0.06696 0.1761
0.1715 0.261 0.6523 0.623 0.423 0.08923 -0.135 -0.418
-0.3186 -0.174 0.2019 0.05743 0.1732 -0.1401 0.1575 0.0763
-0.4321 -0.4133 -0.1382 -0.1373 -0.1389 -0.0449 0.146 0.1906
0.4492 0.4314 0.6924 0.5015 0.3115 0.2654 0.06064 0.265
0.2834 -0.1013 -0.02794 -0.004368 0.2297 0.01061 -0.2241 0.0757
-0.07227 0.05026 -0.1533 0.05487 -0.00732 -0.272 -0.4297 -0.1296
0.1376 -0.00966 -0.01666 -0.1246 -0.002266 0.1398 -0.104 -0.08624
0.02272 -0.01454 0.1439 0.4558 0.2983 -0.0827 0.126 -0.12177
-0.0858 -0.1097 0.2632 0.2047 0.1626 -0.0569 -0.29 -0.2725
-0.4578 -0.3452 -0.2102 -0.4553 -0.09534 -0.3635 -0.2795 -0.02432
00000000: 551a 7c34 fb2c b236 d932 8d34 1ca7 2134
00000010: 3230 2a34 22af 63b4 62b7 30b6 9025 d837
00000020: 7035 5231 3727 f5b2 df33 e430 2231 cb34
00000030: 1534 439a 6333 5432 d7b1 212a 9832 ae33
00000040: 2fb3 50b7 e4b6 bbab aa30 07b3 0cb4 032e
00000050: 0630 ed25 e6aa 26b5 20ac ab20 a133 8534
00000060: 1239 d234 6037 6638 5039 c930 bf31 5130
00000070: f7ab 87af d329 d92f 7c30 6934 e533 2d37
00000080: b937 5224 302f 5bb5 edb7 322a 7ab4 16b2
00000090: 70b7 0db7 54b6 c910 68b2 91b1 ecb0 29b6
000000a0: c9aa 4fb3 2cb3 1ca2 6029 872a ad33 e1b2
000000b0: 8cae 05b5 50b4 bca1 b92a c2af 63af bbb2
000000c0: ae34 3235 442d 7632 2431 8734 e737 812e
000000d0: 1aa8 362f 4030 0422 91ad 53b0 1531 bf2d
000000e0: 49b7 192e dca4 9537 c136 952a 1734 ab2f
000000f0: 4732 d131 9330 0dac 7f32 3636 d1ae 9ab8
00000100: 4db9 4eb3 9933 0b38 da33 4338 f034 a138
00000110: 9735 da32 3c32 3130 df9a 0f31 e3a7 83b2
00000120: 39aa c9ad ce33 e22e 0934 d6b1 a127 95b5
00000130: 7930 96a9 d531 f32f 5b2a f3b0 28b4 a022
00000140: 112d 4bb2 b6b1 2d98 95ad 69b4 3131 2f21
00000150: f9a9 6723 89b4 b134 f631 7631 492c a331
00000160: 7d31 2d34 3839 fc38 c536 b62d 52b0 b0b6
00000170: 19b5 91b1 7632 5a2b 8b31 7cb0 0a31 e22c
00000180: eab6 9db6 6cb0 65b0 72b0 bfa9 ac30 1932
00000190: 3037 e736 8a39 0338 fc34 3f34 c32b 3d34
000001a0: 8934 7cae 27a7 799c 5a33 6f21 2cb3 d82c
000001b0: a0ac 6f2a e8b0 062b 7f9f 5ab4 e0b6 26b0
000001c0: 6730 f2a0 44a4 f9af a498 7930 a8ae 85ad
000001d0: d125 72a3 9b30 4b37 c634 4bad 0830 cbaf
000001e0: 7ead 05af 3634 8d32 3431 48ab a4b4 5cb4
000001f0: 53b7 86b5 bab2 49b7 1aae d1b5 79b4 3aa6

arith.constant11 f2 [20, 28]
-0.1882 0.005257 0.3105 0.1318 0.4746 0.1267 0.01292 -0.22
0.1345 -0.0885 0.1945 0.1153 0.476 0.3828 0.1458 0.365
-0.1572 -0.309 -0.1547 0.065 -0.286 -0.01396 0.0559 0.1829
0.399 0.3164 0.345 0.3096 0.04608 0.1812 0.5005 0.01224
-0.2693 -0.215 -0.2864 -0.402 -0.1066 -0.01654 -0.1636 -0.142
0.1398 0.3796 -0.01527 0.1876 0.184 0.3462 0.2043 0.76
0.638 0.2318 0.531 0.396 0.4233 0.514 0.044 -0.2507
0.3083 0.465 0.4648 0.6235 -0.2152 0.01668 0.2441 0.015305
0.1539 0.0799 0.456 0.4353 0.5566 0.2764 0.418 0.521
0.1694 -0.00501 -0.1024 -0.333 -0.03915 0.004513 0.172 -0.1209
-0.2415 -0.2656 -0.4072 0.1392 -0.0291 -0.2239 0.189 -0.1026
-0.2415 0.12103 0.1804 0.05313 0.0669 0.0971 0.1081 -0.2079
0.05893 0.1569 -0.1412 -0.2079 -0.3523 -0.568 -0.5303 -0.453
-0.4685 -0.339 -0.4075 -0.644 -0.467 -0.6357 0.078 -0.1209
-0.3264 0.2998 0.165 0.1394 0.0221 -0.1777 -0.1931 0.1307
0.001623 -0.1506 0.1693 -0.04303 -0.1797 -0.2347 0.02429 0.005062
0.11365 0.447 0.7085 0.544 0.3896 -0.1272 0.0939 0.05035
-0.3625 -0.1705 -0.03214 0.0871 -0.1641 0.0921 -0.2646 0.2805
0.3435 0.379 0.5215 0.677 0.5664 0.2322 0.1547 0.1935
0.1918 0.6562 0.4795 0.329 0.1493 0.241 0.03818 -0.0148
0.2612 0.2651 0.3633 0.5283 0.6235 0.544 0.489 0.2136
0.1315 0.1108 -0.5005 -0.3694 -0.547 -0.4812 -0.0938 -0.3706
-0.05704 -0.4312 -0.3481 -0.2322 0.2063 0.189 0.1464 -0.1317
-0.0699 0.0601 -0.2113 -0.1272 -0.0807 0.041 0.2181 0.6963
0.1279 0.3884 0.3457 -0.2058 -0.2966 -0.014145 -0.0846 -0.6367
-1.087 -0.5684 -0.735 -0.6177 -0.524 -0.4497 -0.638 -0.382
-0.609 -0.668 -0.01755 0.2512 -0.00714 0.31 -0.02501 -0.1118
-0.1827 0.04407 -0.05817 0.0753 0.0268 -0.0738 -0.6157 -0.341
-0.1438 -0.005047 -0.2969 0.3464 0.3909 0.3162 -0.3948 -0.3936
-0.5693 -0.5005 -0.315 -0.1628 0.2426 0.3718 0.2432 -0.1368
0.03882 -0.1893 -0.05988 -0.2415 -0.04977 -0.2747 -0.416 -0.609
-0.1654 0.10266 -0.02829 -0.10846 -0.0945 -0.1117 -0.0771 -0.382
00000000: 06b2 621d f834 3830 9837 0e30 9d22 0ab3
00000010: 4e30 aaad 3932 612f 9e37 2036 aa30 d735
00000020: 08b1 f2b4 f3b0 292c 93b4 26a3 282b da31
00000030: 6236 1035 8535 f434 e629 cc31 0138 4422
00000040: 4fb4 e1b2 95b4 6fb6 d3ae 3ca4 3cb1 8bb0
00000050: 7930 1336 d1a3 0132 e331 8a35 8a32 143a
00000060: 1b39 6b33 3f38 5636 c636 1d38 a229 03b4
00000070: ef34 7137 7037 fd38 e3b2 4524 d033 d623
00000080: ed30 1d2d 4c37 f736 7438 6c34 b036 2b38
00000090: 6c31 219d 8eae 54b5 03a9 9f1c 8131 bdaf
000000a0: bab3 40b4 84b6 7430 73a7 2ab3 0c32 91ae
000000b0: bab3 bf2f c631 cd2a 482c 372e eb2e a7b2
000000c0: 8b2b 0531 85b0 a7b2 a3b5 8bb8 3eb8 3fb7
000000d0: 7fb7 6db5 85b6 27b9 79b7 16b9 fe2c bdaf
000000e0: 39b5 cc34 4831 7630 a825 b0b1 2eb2 2f30
000000f0: a616 d2b0 6b31 82a9 c0b1 83b3 3826 2f1d
00000100: 462f 2737 ab39 5a38 3c36 12b0 022e 722a
00000110: cdb5 75b1 1da8 932d 40b1 e52d 3cb4 7d34
00000120: 7f35 1036 2c38 6a39 8838 6e33 f330 3132
00000130: 2332 4039 ac37 4435 c730 b633 e328 94a3
00000140: 2e34 3e34 d035 3a38 fd38 5a38 d337 d632
00000150: 3530 172f 01b8 e9b5 60b8 b3b7 01ae eeb5
00000160: 4dab e6b6 92b5 6eb3 9a32 0c32 af30 37b0
00000170: 79ac b12b c3b2 12b0 2aad 3f29 fb32 9239
00000180: 1830 3736 8835 96b2 bfb4 3ea3 6aad 18b9
00000190: 59bc 8cb8 e1b9 f1b8 31b8 32b7 1bb9 1db6
000001a0: dfb8 58b9 7ea4 0534 509f f634 67a6 28af
000001b0: d9b1 a429 72ab d22c dc26 b9ac edb8 75b5
000001c0: 9ab0 2b9d c0b4 8b35 4136 0f35 51b6 4cb6
000001d0: 8eb8 01b8 0ab5 36b1 c333 f335 c833 61b0
000001e0: f828 0fb2 aaab bab3 5faa 65b4 a8b6 dfb8
000001f0: 4bb1 922e 3ea7 f1ae 0cae 26af efac 1db6

sequential/output/MatMul1 f2 [10, 560]
0.2048 0.0915 -0.10986 -0.0443 0.01249 -0.1906 -0.0394 -0.0633
0.0037 0.18 -0.07477 -0.0707 0.01976 0.0829 0.04938 0.003742
0.2136 0.0867 0.04272 -0.03674 0.1197 0.1169 -0.00727 -0.04007
0.2345 -0.2065 0.1532 -0.08984 -0.02612 0.0666 0.10126 0.01996
0.1749 0.0846 -0.05978 0.1251 0.064 0.1292 0.11035 -0.08685
0.04874 -0.07263 -0.1746 0.0505 0.1259 -0.0813 0.1417 0.00573
0.11664 0.04257 0.08636 0.00381 0.001653 -0.03754 0.1924 -0.2136
-0.00227 -0.02585 -0.2676 0.03702 -0.1004 -0.2964 0.003803 0.2727
0.02542 -0.00424 -0.0979 -0.0723 0.0699 -0.2202 0.4458 0.00415
-0.03183 -0.3484 0.18 -0.12195 0.001155 0.11676 -0.4133 0.2126
-0.0478 -0.2585 -0.05368 0.0968 -0.066 -0.04263 0.05457 -0.004276
0.05624 -0.1123 0.2343 0.1116 -0.01913 -0.139 0.2113 -0.1396
-0.07367 -0.01477 -0.0685 0.1017 -0.2068 -0.10815 0.0664 0.0548
-0.1113 -0.0738 0.0622 -0.1472 0.06836 0.01516 0.1399 0.06116
-0.08777 -0.12164 0.05984 -0.0462 -0.2173 -0.02948 -0.0749 0.05273
-0.1965 -0.05054 0.1537 0.0703 0.02301 -0.02904 -0.06445 -0.1195
0.05258 -0.1406 0.006462 0.0319 -0.1179 -0.1059 0.1018 -0.1957
-0.00526 -0.04556 -0.1893 0.2505 0.0556 -0.1472 0.05737 -0.04147
-0.0828 0.0556 0.10486 -0.04288 0.1467 -0.2274 0.1512 0.09033
-0.08496 -0.0607 0.1299 -0.1971 0.02606 -0.0928 0.02164 0.1611
0.0724 -0.11725 0.0656 -0.0948 -0.0356 0.0884 -0.07776 0.2312
0.1047 -0.06665 0.11694 0.10516 0.0509 0.0389 0.01657 -0.075
0.0849 0.06143 -0.01162 -0.01775 0.2114 -0.1615 0.1399 -0.1287
0.0766 0.04324 -0.1097 0.1727 -0.1415 -0.0523 0.01337 0.1427
0.0003004 0.1643 -0.01308 0.1294 0.0787 0.05374 0.0717 -0.00847
0.0625 -0.05368 -0.02017 -0.1289 0.05856 0.09827 -0.006405 0.3127
-0.1925 -0.0671 0.09845 0.1984 0.10095 0.2488 -0.0933 0.08746
0.1666 0.171 0.1785 -0.1288 0.1598 0.01706 0.02737 -0.246
0.2267 0.06604 -0.1293 0.2308 -0.06055 -0.03076 -0.01717 0.1875
-0.1775 0.1616 -0.02563 -0.04108 0.05377 0.03607 0.183 -0.1503
0.008064 0.0537 -0.2051 -0.2014 0.1346 0.12006 -0.0621 0.1667
-0.1552 -0.027 0.0483 0.1387 -0.4028 0.2183 -0.007694 -0.1859
00000000: 8e32 db2d 08af aca9 6522 19b2 0ba9 0dac
00000010: 941b c331 c9ac 86ac 0f25 4e2d 522a aa1b
00000020: d632 8c2d 7829 b4a8 a92f 7b2f 729f 21a9
00000030: 8133 9cb2 e730 c0ad b0a6 432c 7b2e 1c25
00000040: 9931 6a2d a7ab 0130 192c 2230 102f 8fad
00000050: 3d2a a6ac 96b1 772a 0730 34ad 8930 de1d
00000060: 772f 7329 872d ce1b c516 cea8 2832 d6b2
00000070: a698 9ea6 48b4 bd28 6dae beb4 ca1b 5d34
00000080: 8226 579c 44ae a1ac 792c 0cb3 2237 401c
00000090: 13a8 93b5 c331 ceaf bb14 792f 9db6 ce32
000000a0: 1eaa 23b4 dfaa 322e 39ac 75a9 fc2a 619c
000000b0: 332b 30af 7f33 242f e6a4 73b0 c332 78b0
000000c0: b7ac 90a3 62ac 822e 9eb2 ecae 402c 042b
000000d0: 20af b9ac f62b b6b0 602c c323 7a30 d42b
000000e0: 9ead c9af a92b eaa9 f4b2 8ca7 cbac c02a
000000f0: 4ab2 78aa eb30 802c e425 6fa7 20ac a6af
00000100: bb2a 80b0 9e1e 1528 8caf c7ae 842e 43b2
00000110: 639d d5a9 0fb2 0234 1e2b b6b0 582b 4fa9
00000120: 4dad 1e2b b62e 7da9 b230 47b3 d730 c82d
00000130: 70ad c5ab 2830 4fb2 ac26 f0ad 8a25 2831
00000140: a22c 81af 332c 11ae 8fa8 a82d faac 6633
00000150: b32e 44ac 7c2f bb2e 842a fb28 3e24 cdac
00000160: 6f2d dd2b f3a1 8ba4 c432 2bb1 7a30 1eb0
00000170: e72c 8929 05af 8731 87b0 b2aa d822 9130
00000180: ec0c 4231 b2a2 2430 092d e12a 972c 56a0
00000190: 002c dfaa 2aa5 20b0 7f2b 4a2e 8f9e 0135
000001a0: 29b2 4bac 4d2e 5932 762e f633 f9ad 992d
000001b0: 5531 7931 b631 1fb0 1d31 5e24 0227 dfb3
000001c0: 4133 3a2c 23b0 6333 c0ab e0a7 65a4 0032
000001d0: aeb1 2c31 90a6 42a9 e22a 9e28 db31 cfb0
000001e0: 2120 e02a 90b2 72b2 4f30 af2f f3ab 5631
000001f0: f7b0 e9a6 2f2a 7030 72b6 fc32 e19f f3b1
